{
  "format": "layers-model",
  "generatedBy": "keras v2.19.0",
  "convertedBy": "TensorFlow.js Converter v4.22.0",
  "modelTopology": {
    "keras_version": "2.19.0",
    "backend": "tensorflow",
    "model_config": {
      "class_name": "Sequential",
      "config": {
        "name": "sequential",
        "layers": [
          {
            "class_name": "InputLayer",
            "config": {
              "batch_input_shape": [null, 128, 128, 3],
              "dtype": "float32",
              "sparse": false,
              "ragged": false,
              "name": "mobilenetv2_1.00_128_input"
            }
          },
          {
            "class_name": "Functional",
            "config": {
              "name": "mobilenetv2_1.00_128",
              "trainable": true,
              "layers": [
                {
                  "module": "keras.layers",
                  "class_name": "InputLayer",
                  "config": {
                    "batch_input_shape": [null, 128, 128, 3],
                    "dtype": "float32",
                    "sparse": false,
                    "ragged": false,
                    "name": "input_1"
                  },
                  "registered_name": null,
                  "name": "input_1",
                  "inbound_nodes": []
                },
                {
                  "module": "keras.layers",
                  "class_name": "Conv2D",
                  "config": {
                    "name": "Conv1",
                    "trainable": false,
                    "dtype": "float32",
                    "filters": 32,
                    "kernel_size": [3, 3],
                    "strides": [2, 2],
                    "padding": "same",
                    "data_format": "channels_last",
                    "dilation_rate": [1, 1],
                    "groups": 1,
                    "activation": "linear",
                    "use_bias": false,
                    "kernel_initializer": {
                      "module": "keras.initializers",
                      "class_name": "GlorotUniform",
                      "config": { "seed": null },
                      "registered_name": null
                    },
                    "bias_initializer": {
                      "module": "keras.initializers",
                      "class_name": "Zeros",
                      "config": {},
                      "registered_name": null
                    },
                    "kernel_regularizer": null,
                    "bias_regularizer": null,
                    "activity_regularizer": null,
                    "kernel_constraint": null,
                    "bias_constraint": null
                  },
                  "registered_name": null,
                  "build_config": { "input_shape": [null, 128, 128, 3] },
                  "name": "Conv1",
                  "inbound_nodes": [[["input_1", 0, 0, {}]]]
                },
                {
                  "module": "keras.layers",
                  "class_name": "BatchNormalization",
                  "config": {
                    "name": "bn_Conv1",
                    "trainable": false,
                    "dtype": "float32",
                    "axis": [3],
                    "momentum": 0.999,
                    "epsilon": 0.001,
                    "center": true,
                    "scale": true,
                    "beta_initializer": {
                      "module": "keras.initializers",
                      "class_name": "Zeros",
                      "config": {},
                      "registered_name": null
                    },
                    "gamma_initializer": {
                      "module": "keras.initializers",
                      "class_name": "Ones",
                      "config": {},
                      "registered_name": null
                    },
                    "moving_mean_initializer": {
                      "module": "keras.initializers",
                      "class_name": "Zeros",
                      "config": {},
                      "registered_name": null
                    },
                    "moving_variance_initializer": {
                      "module": "keras.initializers",
                      "class_name": "Ones",
                      "config": {},
                      "registered_name": null
                    },
                    "beta_regularizer": null,
                    "gamma_regularizer": null,
                    "beta_constraint": null,
                    "gamma_constraint": null
                  },
                  "registered_name": null,
                  "build_config": { "input_shape": [null, 64, 64, 32] },
                  "name": "bn_Conv1",
                  "inbound_nodes": [[["Conv1", 0, 0, {}]]]
                },
                {
                  "module": "keras.layers",
                  "class_name": "ReLU",
                  "config": {
                    "name": "Conv1_relu",
                    "trainable": false,
                    "dtype": "float32",
                    "max_value": 6.0,
                    "negative_slope": 0.0,
                    "threshold": 0.0
                  },
                  "registered_name": null,
                  "build_config": { "input_shape": [null, 64, 64, 32] },
                  "name": "Conv1_relu",
                  "inbound_nodes": [[["bn_Conv1", 0, 0, {}]]]
                },
                {
                  "module": "keras.layers",
                  "class_name": "DepthwiseConv2D",
                  "config": {
                    "name": "expanded_conv_depthwise",
                    "trainable": false,
                    "dtype": "float32",
                    "kernel_size": [3, 3],
                    "strides": [1, 1],
                    "padding": "same",
                    "data_format": "channels_last",
                    "dilation_rate": [1, 1],
                    "groups": 1,
                    "activation": "linear",
                    "use_bias": false,
                    "bias_initializer": {
                      "module": "keras.initializers",
                      "class_name": "Zeros",
                      "config": {},
                      "registered_name": null
                    },
                    "bias_regularizer": null,
                    "activity_regularizer": null,
                    "bias_constraint": null,
                    "depth_multiplier": 1,
                    "depthwise_initializer": {
                      "module": "keras.initializers",
                      "class_name": "GlorotUniform",
                      "config": { "seed": null },
                      "registered_name": null
                    },
                    "depthwise_regularizer": null,
                    "depthwise_constraint": null
                  },
                  "registered_name": null,
                  "build_config": { "input_shape": [null, 64, 64, 32] },
                  "name": "expanded_conv_depthwise",
                  "inbound_nodes": [[["Conv1_relu", 0, 0, {}]]]
                },
                {
                  "module": "keras.layers",
                  "class_name": "BatchNormalization",
                  "config": {
                    "name": "expanded_conv_depthwise_BN",
                    "trainable": false,
                    "dtype": "float32",
                    "axis": [3],
                    "momentum": 0.999,
                    "epsilon": 0.001,
                    "center": true,
                    "scale": true,
                    "beta_initializer": {
                      "module": "keras.initializers",
                      "class_name": "Zeros",
                      "config": {},
                      "registered_name": null
                    },
                    "gamma_initializer": {
                      "module": "keras.initializers",
                      "class_name": "Ones",
                      "config": {},
                      "registered_name": null
                    },
                    "moving_mean_initializer": {
                      "module": "keras.initializers",
                      "class_name": "Zeros",
                      "config": {},
                      "registered_name": null
                    },
                    "moving_variance_initializer": {
                      "module": "keras.initializers",
                      "class_name": "Ones",
                      "config": {},
                      "registered_name": null
                    },
                    "beta_regularizer": null,
                    "gamma_regularizer": null,
                    "beta_constraint": null,
                    "gamma_constraint": null
                  },
                  "registered_name": null,
                  "build_config": { "input_shape": [null, 64, 64, 32] },
                  "name": "expanded_conv_depthwise_BN",
                  "inbound_nodes": [[["expanded_conv_depthwise", 0, 0, {}]]]
                },
                {
                  "module": "keras.layers",
                  "class_name": "ReLU",
                  "config": {
                    "name": "expanded_conv_depthwise_relu",
                    "trainable": false,
                    "dtype": "float32",
                    "max_value": 6.0,
                    "negative_slope": 0.0,
                    "threshold": 0.0
                  },
                  "registered_name": null,
                  "build_config": { "input_shape": [null, 64, 64, 32] },
                  "name": "expanded_conv_depthwise_relu",
                  "inbound_nodes": [[["expanded_conv_depthwise_BN", 0, 0, {}]]]
                },
                {
                  "module": "keras.layers",
                  "class_name": "Conv2D",
                  "config": {
                    "name": "expanded_conv_project",
                    "trainable": false,
                    "dtype": "float32",
                    "filters": 16,
                    "kernel_size": [1, 1],
                    "strides": [1, 1],
                    "padding": "same",
                    "data_format": "channels_last",
                    "dilation_rate": [1, 1],
                    "groups": 1,
                    "activation": "linear",
                    "use_bias": false,
                    "kernel_initializer": {
                      "module": "keras.initializers",
                      "class_name": "GlorotUniform",
                      "config": { "seed": null },
                      "registered_name": null
                    },
                    "bias_initializer": {
                      "module": "keras.initializers",
                      "class_name": "Zeros",
                      "config": {},
                      "registered_name": null
                    },
                    "kernel_regularizer": null,
                    "bias_regularizer": null,
                    "activity_regularizer": null,
                    "kernel_constraint": null,
                    "bias_constraint": null
                  },
                  "registered_name": null,
                  "build_config": { "input_shape": [null, 64, 64, 32] },
                  "name": "expanded_conv_project",
                  "inbound_nodes": [
                    [["expanded_conv_depthwise_relu", 0, 0, {}]]
                  ]
                },
                {
                  "module": "keras.layers",
                  "class_name": "BatchNormalization",
                  "config": {
                    "name": "expanded_conv_project_BN",
                    "trainable": false,
                    "dtype": "float32",
                    "axis": [3],
                    "momentum": 0.999,
                    "epsilon": 0.001,
                    "center": true,
                    "scale": true,
                    "beta_initializer": {
                      "module": "keras.initializers",
                      "class_name": "Zeros",
                      "config": {},
                      "registered_name": null
                    },
                    "gamma_initializer": {
                      "module": "keras.initializers",
                      "class_name": "Ones",
                      "config": {},
                      "registered_name": null
                    },
                    "moving_mean_initializer": {
                      "module": "keras.initializers",
                      "class_name": "Zeros",
                      "config": {},
                      "registered_name": null
                    },
                    "moving_variance_initializer": {
                      "module": "keras.initializers",
                      "class_name": "Ones",
                      "config": {},
                      "registered_name": null
                    },
                    "beta_regularizer": null,
                    "gamma_regularizer": null,
                    "beta_constraint": null,
                    "gamma_constraint": null
                  },
                  "registered_name": null,
                  "build_config": { "input_shape": [null, 64, 64, 16] },
                  "name": "expanded_conv_project_BN",
                  "inbound_nodes": [[["expanded_conv_project", 0, 0, {}]]]
                },
                {
                  "module": "keras.layers",
                  "class_name": "Conv2D",
                  "config": {
                    "name": "block_1_expand",
                    "trainable": false,
                    "dtype": "float32",
                    "filters": 96,
                    "kernel_size": [1, 1],
                    "strides": [1, 1],
                    "padding": "same",
                    "data_format": "channels_last",
                    "dilation_rate": [1, 1],
                    "groups": 1,
                    "activation": "linear",
                    "use_bias": false,
                    "kernel_initializer": {
                      "module": "keras.initializers",
                      "class_name": "GlorotUniform",
                      "config": { "seed": null },
                      "registered_name": null
                    },
                    "bias_initializer": {
                      "module": "keras.initializers",
                      "class_name": "Zeros",
                      "config": {},
                      "registered_name": null
                    },
                    "kernel_regularizer": null,
                    "bias_regularizer": null,
                    "activity_regularizer": null,
                    "kernel_constraint": null,
                    "bias_constraint": null
                  },
                  "registered_name": null,
                  "build_config": { "input_shape": [null, 64, 64, 16] },
                  "name": "block_1_expand",
                  "inbound_nodes": [[["expanded_conv_project_BN", 0, 0, {}]]]
                },
                {
                  "module": "keras.layers",
                  "class_name": "BatchNormalization",
                  "config": {
                    "name": "block_1_expand_BN",
                    "trainable": false,
                    "dtype": "float32",
                    "axis": [3],
                    "momentum": 0.999,
                    "epsilon": 0.001,
                    "center": true,
                    "scale": true,
                    "beta_initializer": {
                      "module": "keras.initializers",
                      "class_name": "Zeros",
                      "config": {},
                      "registered_name": null
                    },
                    "gamma_initializer": {
                      "module": "keras.initializers",
                      "class_name": "Ones",
                      "config": {},
                      "registered_name": null
                    },
                    "moving_mean_initializer": {
                      "module": "keras.initializers",
                      "class_name": "Zeros",
                      "config": {},
                      "registered_name": null
                    },
                    "moving_variance_initializer": {
                      "module": "keras.initializers",
                      "class_name": "Ones",
                      "config": {},
                      "registered_name": null
                    },
                    "beta_regularizer": null,
                    "gamma_regularizer": null,
                    "beta_constraint": null,
                    "gamma_constraint": null
                  },
                  "registered_name": null,
                  "build_config": { "input_shape": [null, 64, 64, 96] },
                  "name": "block_1_expand_BN",
                  "inbound_nodes": [[["block_1_expand", 0, 0, {}]]]
                },
                {
                  "module": "keras.layers",
                  "class_name": "ReLU",
                  "config": {
                    "name": "block_1_expand_relu",
                    "trainable": false,
                    "dtype": "float32",
                    "max_value": 6.0,
                    "negative_slope": 0.0,
                    "threshold": 0.0
                  },
                  "registered_name": null,
                  "build_config": { "input_shape": [null, 64, 64, 96] },
                  "name": "block_1_expand_relu",
                  "inbound_nodes": [[["block_1_expand_BN", 0, 0, {}]]]
                },
                {
                  "module": "keras.layers",
                  "class_name": "ZeroPadding2D",
                  "config": {
                    "name": "block_1_pad",
                    "trainable": false,
                    "dtype": "float32",
                    "padding": [[0, 1], [0, 1]],
                    "data_format": "channels_last"
                  },
                  "registered_name": null,
                  "build_config": { "input_shape": [null, 64, 64, 96] },
                  "name": "block_1_pad",
                  "inbound_nodes": [[["block_1_expand_relu", 0, 0, {}]]]
                },
                {
                  "module": "keras.layers",
                  "class_name": "DepthwiseConv2D",
                  "config": {
                    "name": "block_1_depthwise",
                    "trainable": false,
                    "dtype": "float32",
                    "kernel_size": [3, 3],
                    "strides": [2, 2],
                    "padding": "valid",
                    "data_format": "channels_last",
                    "dilation_rate": [1, 1],
                    "groups": 1,
                    "activation": "linear",
                    "use_bias": false,
                    "bias_initializer": {
                      "module": "keras.initializers",
                      "class_name": "Zeros",
                      "config": {},
                      "registered_name": null
                    },
                    "bias_regularizer": null,
                    "activity_regularizer": null,
                    "bias_constraint": null,
                    "depth_multiplier": 1,
                    "depthwise_initializer": {
                      "module": "keras.initializers",
                      "class_name": "GlorotUniform",
                      "config": { "seed": null },
                      "registered_name": null
                    },
                    "depthwise_regularizer": null,
                    "depthwise_constraint": null
                  },
                  "registered_name": null,
                  "build_config": { "input_shape": [null, 65, 65, 96] },
                  "name": "block_1_depthwise",
                  "inbound_nodes": [[["block_1_pad", 0, 0, {}]]]
                },
                {
                  "module": "keras.layers",
                  "class_name": "BatchNormalization",
                  "config": {
                    "name": "block_1_depthwise_BN",
                    "trainable": false,
                    "dtype": "float32",
                    "axis": [3],
                    "momentum": 0.999,
                    "epsilon": 0.001,
                    "center": true,
                    "scale": true,
                    "beta_initializer": {
                      "module": "keras.initializers",
                      "class_name": "Zeros",
                      "config": {},
                      "registered_name": null
                    },
                    "gamma_initializer": {
                      "module": "keras.initializers",
                      "class_name": "Ones",
                      "config": {},
                      "registered_name": null
                    },
                    "moving_mean_initializer": {
                      "module": "keras.initializers",
                      "class_name": "Zeros",
                      "config": {},
                      "registered_name": null
                    },
                    "moving_variance_initializer": {
                      "module": "keras.initializers",
                      "class_name": "Ones",
                      "config": {},
                      "registered_name": null
                    },
                    "beta_regularizer": null,
                    "gamma_regularizer": null,
                    "beta_constraint": null,
                    "gamma_constraint": null
                  },
                  "registered_name": null,
                  "build_config": { "input_shape": [null, 32, 32, 96] },
                  "name": "block_1_depthwise_BN",
                  "inbound_nodes": [[["block_1_depthwise", 0, 0, {}]]]
                },
                {
                  "module": "keras.layers",
                  "class_name": "ReLU",
                  "config": {
                    "name": "block_1_depthwise_relu",
                    "trainable": false,
                    "dtype": "float32",
                    "max_value": 6.0,
                    "negative_slope": 0.0,
                    "threshold": 0.0
                  },
                  "registered_name": null,
                  "build_config": { "input_shape": [null, 32, 32, 96] },
                  "name": "block_1_depthwise_relu",
                  "inbound_nodes": [[["block_1_depthwise_BN", 0, 0, {}]]]
                },
                {
                  "module": "keras.layers",
                  "class_name": "Conv2D",
                  "config": {
                    "name": "block_1_project",
                    "trainable": false,
                    "dtype": "float32",
                    "filters": 24,
                    "kernel_size": [1, 1],
                    "strides": [1, 1],
                    "padding": "same",
                    "data_format": "channels_last",
                    "dilation_rate": [1, 1],
                    "groups": 1,
                    "activation": "linear",
                    "use_bias": false,
                    "kernel_initializer": {
                      "module": "keras.initializers",
                      "class_name": "GlorotUniform",
                      "config": { "seed": null },
                      "registered_name": null
                    },
                    "bias_initializer": {
                      "module": "keras.initializers",
                      "class_name": "Zeros",
                      "config": {},
                      "registered_name": null
                    },
                    "kernel_regularizer": null,
                    "bias_regularizer": null,
                    "activity_regularizer": null,
                    "kernel_constraint": null,
                    "bias_constraint": null
                  },
                  "registered_name": null,
                  "build_config": { "input_shape": [null, 32, 32, 96] },
                  "name": "block_1_project",
                  "inbound_nodes": [[["block_1_depthwise_relu", 0, 0, {}]]]
                },
                {
                  "module": "keras.layers",
                  "class_name": "BatchNormalization",
                  "config": {
                    "name": "block_1_project_BN",
                    "trainable": false,
                    "dtype": "float32",
                    "axis": [3],
                    "momentum": 0.999,
                    "epsilon": 0.001,
                    "center": true,
                    "scale": true,
                    "beta_initializer": {
                      "module": "keras.initializers",
                      "class_name": "Zeros",
                      "config": {},
                      "registered_name": null
                    },
                    "gamma_initializer": {
                      "module": "keras.initializers",
                      "class_name": "Ones",
                      "config": {},
                      "registered_name": null
                    },
                    "moving_mean_initializer": {
                      "module": "keras.initializers",
                      "class_name": "Zeros",
                      "config": {},
                      "registered_name": null
                    },
                    "moving_variance_initializer": {
                      "module": "keras.initializers",
                      "class_name": "Ones",
                      "config": {},
                      "registered_name": null
                    },
                    "beta_regularizer": null,
                    "gamma_regularizer": null,
                    "beta_constraint": null,
                    "gamma_constraint": null
                  },
                  "registered_name": null,
                  "build_config": { "input_shape": [null, 32, 32, 24] },
                  "name": "block_1_project_BN",
                  "inbound_nodes": [[["block_1_project", 0, 0, {}]]]
                },
                {
                  "module": "keras.layers",
                  "class_name": "Conv2D",
                  "config": {
                    "name": "block_2_expand",
                    "trainable": false,
                    "dtype": "float32",
                    "filters": 144,
                    "kernel_size": [1, 1],
                    "strides": [1, 1],
                    "padding": "same",
                    "data_format": "channels_last",
                    "dilation_rate": [1, 1],
                    "groups": 1,
                    "activation": "linear",
                    "use_bias": false,
                    "kernel_initializer": {
                      "module": "keras.initializers",
                      "class_name": "GlorotUniform",
                      "config": { "seed": null },
                      "registered_name": null
                    },
                    "bias_initializer": {
                      "module": "keras.initializers",
                      "class_name": "Zeros",
                      "config": {},
                      "registered_name": null
                    },
                    "kernel_regularizer": null,
                    "bias_regularizer": null,
                    "activity_regularizer": null,
                    "kernel_constraint": null,
                    "bias_constraint": null
                  },
                  "registered_name": null,
                  "build_config": { "input_shape": [null, 32, 32, 24] },
                  "name": "block_2_expand",
                  "inbound_nodes": [[["block_1_project_BN", 0, 0, {}]]]
                },
                {
                  "module": "keras.layers",
                  "class_name": "BatchNormalization",
                  "config": {
                    "name": "block_2_expand_BN",
                    "trainable": false,
                    "dtype": "float32",
                    "axis": [3],
                    "momentum": 0.999,
                    "epsilon": 0.001,
                    "center": true,
                    "scale": true,
                    "beta_initializer": {
                      "module": "keras.initializers",
                      "class_name": "Zeros",
                      "config": {},
                      "registered_name": null
                    },
                    "gamma_initializer": {
                      "module": "keras.initializers",
                      "class_name": "Ones",
                      "config": {},
                      "registered_name": null
                    },
                    "moving_mean_initializer": {
                      "module": "keras.initializers",
                      "class_name": "Zeros",
                      "config": {},
                      "registered_name": null
                    },
                    "moving_variance_initializer": {
                      "module": "keras.initializers",
                      "class_name": "Ones",
                      "config": {},
                      "registered_name": null
                    },
                    "beta_regularizer": null,
                    "gamma_regularizer": null,
                    "beta_constraint": null,
                    "gamma_constraint": null
                  },
                  "registered_name": null,
                  "build_config": { "input_shape": [null, 32, 32, 144] },
                  "name": "block_2_expand_BN",
                  "inbound_nodes": [[["block_2_expand", 0, 0, {}]]]
                },
                {
                  "module": "keras.layers",
                  "class_name": "ReLU",
                  "config": {
                    "name": "block_2_expand_relu",
                    "trainable": false,
                    "dtype": "float32",
                    "max_value": 6.0,
                    "negative_slope": 0.0,
                    "threshold": 0.0
                  },
                  "registered_name": null,
                  "build_config": { "input_shape": [null, 32, 32, 144] },
                  "name": "block_2_expand_relu",
                  "inbound_nodes": [[["block_2_expand_BN", 0, 0, {}]]]
                },
                {
                  "module": "keras.layers",
                  "class_name": "DepthwiseConv2D",
                  "config": {
                    "name": "block_2_depthwise",
                    "trainable": false,
                    "dtype": "float32",
                    "kernel_size": [3, 3],
                    "strides": [1, 1],
                    "padding": "same",
                    "data_format": "channels_last",
                    "dilation_rate": [1, 1],
                    "groups": 1,
                    "activation": "linear",
                    "use_bias": false,
                    "bias_initializer": {
                      "module": "keras.initializers",
                      "class_name": "Zeros",
                      "config": {},
                      "registered_name": null
                    },
                    "bias_regularizer": null,
                    "activity_regularizer": null,
                    "bias_constraint": null,
                    "depth_multiplier": 1,
                    "depthwise_initializer": {
                      "module": "keras.initializers",
                      "class_name": "GlorotUniform",
                      "config": { "seed": null },
                      "registered_name": null
                    },
                    "depthwise_regularizer": null,
                    "depthwise_constraint": null
                  },
                  "registered_name": null,
                  "build_config": { "input_shape": [null, 32, 32, 144] },
                  "name": "block_2_depthwise",
                  "inbound_nodes": [[["block_2_expand_relu", 0, 0, {}]]]
                },
                {
                  "module": "keras.layers",
                  "class_name": "BatchNormalization",
                  "config": {
                    "name": "block_2_depthwise_BN",
                    "trainable": false,
                    "dtype": "float32",
                    "axis": [3],
                    "momentum": 0.999,
                    "epsilon": 0.001,
                    "center": true,
                    "scale": true,
                    "beta_initializer": {
                      "module": "keras.initializers",
                      "class_name": "Zeros",
                      "config": {},
                      "registered_name": null
                    },
                    "gamma_initializer": {
                      "module": "keras.initializers",
                      "class_name": "Ones",
                      "config": {},
                      "registered_name": null
                    },
                    "moving_mean_initializer": {
                      "module": "keras.initializers",
                      "class_name": "Zeros",
                      "config": {},
                      "registered_name": null
                    },
                    "moving_variance_initializer": {
                      "module": "keras.initializers",
                      "class_name": "Ones",
                      "config": {},
                      "registered_name": null
                    },
                    "beta_regularizer": null,
                    "gamma_regularizer": null,
                    "beta_constraint": null,
                    "gamma_constraint": null
                  },
                  "registered_name": null,
                  "build_config": { "input_shape": [null, 32, 32, 144] },
                  "name": "block_2_depthwise_BN",
                  "inbound_nodes": [[["block_2_depthwise", 0, 0, {}]]]
                },
                {
                  "module": "keras.layers",
                  "class_name": "ReLU",
                  "config": {
                    "name": "block_2_depthwise_relu",
                    "trainable": false,
                    "dtype": "float32",
                    "max_value": 6.0,
                    "negative_slope": 0.0,
                    "threshold": 0.0
                  },
                  "registered_name": null,
                  "build_config": { "input_shape": [null, 32, 32, 144] },
                  "name": "block_2_depthwise_relu",
                  "inbound_nodes": [[["block_2_depthwise_BN", 0, 0, {}]]]
                },
                {
                  "module": "keras.layers",
                  "class_name": "Conv2D",
                  "config": {
                    "name": "block_2_project",
                    "trainable": false,
                    "dtype": "float32",
                    "filters": 24,
                    "kernel_size": [1, 1],
                    "strides": [1, 1],
                    "padding": "same",
                    "data_format": "channels_last",
                    "dilation_rate": [1, 1],
                    "groups": 1,
                    "activation": "linear",
                    "use_bias": false,
                    "kernel_initializer": {
                      "module": "keras.initializers",
                      "class_name": "GlorotUniform",
                      "config": { "seed": null },
                      "registered_name": null
                    },
                    "bias_initializer": {
                      "module": "keras.initializers",
                      "class_name": "Zeros",
                      "config": {},
                      "registered_name": null
                    },
                    "kernel_regularizer": null,
                    "bias_regularizer": null,
                    "activity_regularizer": null,
                    "kernel_constraint": null,
                    "bias_constraint": null
                  },
                  "registered_name": null,
                  "build_config": { "input_shape": [null, 32, 32, 144] },
                  "name": "block_2_project",
                  "inbound_nodes": [[["block_2_depthwise_relu", 0, 0, {}]]]
                },
                {
                  "module": "keras.layers",
                  "class_name": "BatchNormalization",
                  "config": {
                    "name": "block_2_project_BN",
                    "trainable": false,
                    "dtype": "float32",
                    "axis": [3],
                    "momentum": 0.999,
                    "epsilon": 0.001,
                    "center": true,
                    "scale": true,
                    "beta_initializer": {
                      "module": "keras.initializers",
                      "class_name": "Zeros",
                      "config": {},
                      "registered_name": null
                    },
                    "gamma_initializer": {
                      "module": "keras.initializers",
                      "class_name": "Ones",
                      "config": {},
                      "registered_name": null
                    },
                    "moving_mean_initializer": {
                      "module": "keras.initializers",
                      "class_name": "Zeros",
                      "config": {},
                      "registered_name": null
                    },
                    "moving_variance_initializer": {
                      "module": "keras.initializers",
                      "class_name": "Ones",
                      "config": {},
                      "registered_name": null
                    },
                    "beta_regularizer": null,
                    "gamma_regularizer": null,
                    "beta_constraint": null,
                    "gamma_constraint": null
                  },
                  "registered_name": null,
                  "build_config": { "input_shape": [null, 32, 32, 24] },
                  "name": "block_2_project_BN",
                  "inbound_nodes": [[["block_2_project", 0, 0, {}]]]
                },
                {
                  "module": "keras.layers",
                  "class_name": "Add",
                  "config": {
                    "name": "block_2_add",
                    "trainable": false,
                    "dtype": "float32"
                  },
                  "registered_name": null,
                  "build_config": {
                    "input_shape": [[null, 32, 32, 24], [null, 32, 32, 24]]
                  },
                  "name": "block_2_add",
                  "inbound_nodes": [
                    [
                      ["block_1_project_BN", 0, 0, {}],
                      ["block_2_project_BN", 0, 0, {}]
                    ]
                  ]
                },
                {
                  "module": "keras.layers",
                  "class_name": "Conv2D",
                  "config": {
                    "name": "block_3_expand",
                    "trainable": false,
                    "dtype": "float32",
                    "filters": 144,
                    "kernel_size": [1, 1],
                    "strides": [1, 1],
                    "padding": "same",
                    "data_format": "channels_last",
                    "dilation_rate": [1, 1],
                    "groups": 1,
                    "activation": "linear",
                    "use_bias": false,
                    "kernel_initializer": {
                      "module": "keras.initializers",
                      "class_name": "GlorotUniform",
                      "config": { "seed": null },
                      "registered_name": null
                    },
                    "bias_initializer": {
                      "module": "keras.initializers",
                      "class_name": "Zeros",
                      "config": {},
                      "registered_name": null
                    },
                    "kernel_regularizer": null,
                    "bias_regularizer": null,
                    "activity_regularizer": null,
                    "kernel_constraint": null,
                    "bias_constraint": null
                  },
                  "registered_name": null,
                  "build_config": { "input_shape": [null, 32, 32, 24] },
                  "name": "block_3_expand",
                  "inbound_nodes": [[["block_2_add", 0, 0, {}]]]
                },
                {
                  "module": "keras.layers",
                  "class_name": "BatchNormalization",
                  "config": {
                    "name": "block_3_expand_BN",
                    "trainable": false,
                    "dtype": "float32",
                    "axis": [3],
                    "momentum": 0.999,
                    "epsilon": 0.001,
                    "center": true,
                    "scale": true,
                    "beta_initializer": {
                      "module": "keras.initializers",
                      "class_name": "Zeros",
                      "config": {},
                      "registered_name": null
                    },
                    "gamma_initializer": {
                      "module": "keras.initializers",
                      "class_name": "Ones",
                      "config": {},
                      "registered_name": null
                    },
                    "moving_mean_initializer": {
                      "module": "keras.initializers",
                      "class_name": "Zeros",
                      "config": {},
                      "registered_name": null
                    },
                    "moving_variance_initializer": {
                      "module": "keras.initializers",
                      "class_name": "Ones",
                      "config": {},
                      "registered_name": null
                    },
                    "beta_regularizer": null,
                    "gamma_regularizer": null,
                    "beta_constraint": null,
                    "gamma_constraint": null
                  },
                  "registered_name": null,
                  "build_config": { "input_shape": [null, 32, 32, 144] },
                  "name": "block_3_expand_BN",
                  "inbound_nodes": [[["block_3_expand", 0, 0, {}]]]
                },
                {
                  "module": "keras.layers",
                  "class_name": "ReLU",
                  "config": {
                    "name": "block_3_expand_relu",
                    "trainable": false,
                    "dtype": "float32",
                    "max_value": 6.0,
                    "negative_slope": 0.0,
                    "threshold": 0.0
                  },
                  "registered_name": null,
                  "build_config": { "input_shape": [null, 32, 32, 144] },
                  "name": "block_3_expand_relu",
                  "inbound_nodes": [[["block_3_expand_BN", 0, 0, {}]]]
                },
                {
                  "module": "keras.layers",
                  "class_name": "ZeroPadding2D",
                  "config": {
                    "name": "block_3_pad",
                    "trainable": false,
                    "dtype": "float32",
                    "padding": [[0, 1], [0, 1]],
                    "data_format": "channels_last"
                  },
                  "registered_name": null,
                  "build_config": { "input_shape": [null, 32, 32, 144] },
                  "name": "block_3_pad",
                  "inbound_nodes": [[["block_3_expand_relu", 0, 0, {}]]]
                },
                {
                  "module": "keras.layers",
                  "class_name": "DepthwiseConv2D",
                  "config": {
                    "name": "block_3_depthwise",
                    "trainable": false,
                    "dtype": "float32",
                    "kernel_size": [3, 3],
                    "strides": [2, 2],
                    "padding": "valid",
                    "data_format": "channels_last",
                    "dilation_rate": [1, 1],
                    "groups": 1,
                    "activation": "linear",
                    "use_bias": false,
                    "bias_initializer": {
                      "module": "keras.initializers",
                      "class_name": "Zeros",
                      "config": {},
                      "registered_name": null
                    },
                    "bias_regularizer": null,
                    "activity_regularizer": null,
                    "bias_constraint": null,
                    "depth_multiplier": 1,
                    "depthwise_initializer": {
                      "module": "keras.initializers",
                      "class_name": "GlorotUniform",
                      "config": { "seed": null },
                      "registered_name": null
                    },
                    "depthwise_regularizer": null,
                    "depthwise_constraint": null
                  },
                  "registered_name": null,
                  "build_config": { "input_shape": [null, 33, 33, 144] },
                  "name": "block_3_depthwise",
                  "inbound_nodes": [[["block_3_pad", 0, 0, {}]]]
                },
                {
                  "module": "keras.layers",
                  "class_name": "BatchNormalization",
                  "config": {
                    "name": "block_3_depthwise_BN",
                    "trainable": false,
                    "dtype": "float32",
                    "axis": [3],
                    "momentum": 0.999,
                    "epsilon": 0.001,
                    "center": true,
                    "scale": true,
                    "beta_initializer": {
                      "module": "keras.initializers",
                      "class_name": "Zeros",
                      "config": {},
                      "registered_name": null
                    },
                    "gamma_initializer": {
                      "module": "keras.initializers",
                      "class_name": "Ones",
                      "config": {},
                      "registered_name": null
                    },
                    "moving_mean_initializer": {
                      "module": "keras.initializers",
                      "class_name": "Zeros",
                      "config": {},
                      "registered_name": null
                    },
                    "moving_variance_initializer": {
                      "module": "keras.initializers",
                      "class_name": "Ones",
                      "config": {},
                      "registered_name": null
                    },
                    "beta_regularizer": null,
                    "gamma_regularizer": null,
                    "beta_constraint": null,
                    "gamma_constraint": null
                  },
                  "registered_name": null,
                  "build_config": { "input_shape": [null, 16, 16, 144] },
                  "name": "block_3_depthwise_BN",
                  "inbound_nodes": [[["block_3_depthwise", 0, 0, {}]]]
                },
                {
                  "module": "keras.layers",
                  "class_name": "ReLU",
                  "config": {
                    "name": "block_3_depthwise_relu",
                    "trainable": false,
                    "dtype": "float32",
                    "max_value": 6.0,
                    "negative_slope": 0.0,
                    "threshold": 0.0
                  },
                  "registered_name": null,
                  "build_config": { "input_shape": [null, 16, 16, 144] },
                  "name": "block_3_depthwise_relu",
                  "inbound_nodes": [[["block_3_depthwise_BN", 0, 0, {}]]]
                },
                {
                  "module": "keras.layers",
                  "class_name": "Conv2D",
                  "config": {
                    "name": "block_3_project",
                    "trainable": false,
                    "dtype": "float32",
                    "filters": 32,
                    "kernel_size": [1, 1],
                    "strides": [1, 1],
                    "padding": "same",
                    "data_format": "channels_last",
                    "dilation_rate": [1, 1],
                    "groups": 1,
                    "activation": "linear",
                    "use_bias": false,
                    "kernel_initializer": {
                      "module": "keras.initializers",
                      "class_name": "GlorotUniform",
                      "config": { "seed": null },
                      "registered_name": null
                    },
                    "bias_initializer": {
                      "module": "keras.initializers",
                      "class_name": "Zeros",
                      "config": {},
                      "registered_name": null
                    },
                    "kernel_regularizer": null,
                    "bias_regularizer": null,
                    "activity_regularizer": null,
                    "kernel_constraint": null,
                    "bias_constraint": null
                  },
                  "registered_name": null,
                  "build_config": { "input_shape": [null, 16, 16, 144] },
                  "name": "block_3_project",
                  "inbound_nodes": [[["block_3_depthwise_relu", 0, 0, {}]]]
                },
                {
                  "module": "keras.layers",
                  "class_name": "BatchNormalization",
                  "config": {
                    "name": "block_3_project_BN",
                    "trainable": false,
                    "dtype": "float32",
                    "axis": [3],
                    "momentum": 0.999,
                    "epsilon": 0.001,
                    "center": true,
                    "scale": true,
                    "beta_initializer": {
                      "module": "keras.initializers",
                      "class_name": "Zeros",
                      "config": {},
                      "registered_name": null
                    },
                    "gamma_initializer": {
                      "module": "keras.initializers",
                      "class_name": "Ones",
                      "config": {},
                      "registered_name": null
                    },
                    "moving_mean_initializer": {
                      "module": "keras.initializers",
                      "class_name": "Zeros",
                      "config": {},
                      "registered_name": null
                    },
                    "moving_variance_initializer": {
                      "module": "keras.initializers",
                      "class_name": "Ones",
                      "config": {},
                      "registered_name": null
                    },
                    "beta_regularizer": null,
                    "gamma_regularizer": null,
                    "beta_constraint": null,
                    "gamma_constraint": null
                  },
                  "registered_name": null,
                  "build_config": { "input_shape": [null, 16, 16, 32] },
                  "name": "block_3_project_BN",
                  "inbound_nodes": [[["block_3_project", 0, 0, {}]]]
                },
                {
                  "module": "keras.layers",
                  "class_name": "Conv2D",
                  "config": {
                    "name": "block_4_expand",
                    "trainable": false,
                    "dtype": "float32",
                    "filters": 192,
                    "kernel_size": [1, 1],
                    "strides": [1, 1],
                    "padding": "same",
                    "data_format": "channels_last",
                    "dilation_rate": [1, 1],
                    "groups": 1,
                    "activation": "linear",
                    "use_bias": false,
                    "kernel_initializer": {
                      "module": "keras.initializers",
                      "class_name": "GlorotUniform",
                      "config": { "seed": null },
                      "registered_name": null
                    },
                    "bias_initializer": {
                      "module": "keras.initializers",
                      "class_name": "Zeros",
                      "config": {},
                      "registered_name": null
                    },
                    "kernel_regularizer": null,
                    "bias_regularizer": null,
                    "activity_regularizer": null,
                    "kernel_constraint": null,
                    "bias_constraint": null
                  },
                  "registered_name": null,
                  "build_config": { "input_shape": [null, 16, 16, 32] },
                  "name": "block_4_expand",
                  "inbound_nodes": [[["block_3_project_BN", 0, 0, {}]]]
                },
                {
                  "module": "keras.layers",
                  "class_name": "BatchNormalization",
                  "config": {
                    "name": "block_4_expand_BN",
                    "trainable": false,
                    "dtype": "float32",
                    "axis": [3],
                    "momentum": 0.999,
                    "epsilon": 0.001,
                    "center": true,
                    "scale": true,
                    "beta_initializer": {
                      "module": "keras.initializers",
                      "class_name": "Zeros",
                      "config": {},
                      "registered_name": null
                    },
                    "gamma_initializer": {
                      "module": "keras.initializers",
                      "class_name": "Ones",
                      "config": {},
                      "registered_name": null
                    },
                    "moving_mean_initializer": {
                      "module": "keras.initializers",
                      "class_name": "Zeros",
                      "config": {},
                      "registered_name": null
                    },
                    "moving_variance_initializer": {
                      "module": "keras.initializers",
                      "class_name": "Ones",
                      "config": {},
                      "registered_name": null
                    },
                    "beta_regularizer": null,
                    "gamma_regularizer": null,
                    "beta_constraint": null,
                    "gamma_constraint": null
                  },
                  "registered_name": null,
                  "build_config": { "input_shape": [null, 16, 16, 192] },
                  "name": "block_4_expand_BN",
                  "inbound_nodes": [[["block_4_expand", 0, 0, {}]]]
                },
                {
                  "module": "keras.layers",
                  "class_name": "ReLU",
                  "config": {
                    "name": "block_4_expand_relu",
                    "trainable": false,
                    "dtype": "float32",
                    "max_value": 6.0,
                    "negative_slope": 0.0,
                    "threshold": 0.0
                  },
                  "registered_name": null,
                  "build_config": { "input_shape": [null, 16, 16, 192] },
                  "name": "block_4_expand_relu",
                  "inbound_nodes": [[["block_4_expand_BN", 0, 0, {}]]]
                },
                {
                  "module": "keras.layers",
                  "class_name": "DepthwiseConv2D",
                  "config": {
                    "name": "block_4_depthwise",
                    "trainable": false,
                    "dtype": "float32",
                    "kernel_size": [3, 3],
                    "strides": [1, 1],
                    "padding": "same",
                    "data_format": "channels_last",
                    "dilation_rate": [1, 1],
                    "groups": 1,
                    "activation": "linear",
                    "use_bias": false,
                    "bias_initializer": {
                      "module": "keras.initializers",
                      "class_name": "Zeros",
                      "config": {},
                      "registered_name": null
                    },
                    "bias_regularizer": null,
                    "activity_regularizer": null,
                    "bias_constraint": null,
                    "depth_multiplier": 1,
                    "depthwise_initializer": {
                      "module": "keras.initializers",
                      "class_name": "GlorotUniform",
                      "config": { "seed": null },
                      "registered_name": null
                    },
                    "depthwise_regularizer": null,
                    "depthwise_constraint": null
                  },
                  "registered_name": null,
                  "build_config": { "input_shape": [null, 16, 16, 192] },
                  "name": "block_4_depthwise",
                  "inbound_nodes": [[["block_4_expand_relu", 0, 0, {}]]]
                },
                {
                  "module": "keras.layers",
                  "class_name": "BatchNormalization",
                  "config": {
                    "name": "block_4_depthwise_BN",
                    "trainable": false,
                    "dtype": "float32",
                    "axis": [3],
                    "momentum": 0.999,
                    "epsilon": 0.001,
                    "center": true,
                    "scale": true,
                    "beta_initializer": {
                      "module": "keras.initializers",
                      "class_name": "Zeros",
                      "config": {},
                      "registered_name": null
                    },
                    "gamma_initializer": {
                      "module": "keras.initializers",
                      "class_name": "Ones",
                      "config": {},
                      "registered_name": null
                    },
                    "moving_mean_initializer": {
                      "module": "keras.initializers",
                      "class_name": "Zeros",
                      "config": {},
                      "registered_name": null
                    },
                    "moving_variance_initializer": {
                      "module": "keras.initializers",
                      "class_name": "Ones",
                      "config": {},
                      "registered_name": null
                    },
                    "beta_regularizer": null,
                    "gamma_regularizer": null,
                    "beta_constraint": null,
                    "gamma_constraint": null
                  },
                  "registered_name": null,
                  "build_config": { "input_shape": [null, 16, 16, 192] },
                  "name": "block_4_depthwise_BN",
                  "inbound_nodes": [[["block_4_depthwise", 0, 0, {}]]]
                },
                {
                  "module": "keras.layers",
                  "class_name": "ReLU",
                  "config": {
                    "name": "block_4_depthwise_relu",
                    "trainable": false,
                    "dtype": "float32",
                    "max_value": 6.0,
                    "negative_slope": 0.0,
                    "threshold": 0.0
                  },
                  "registered_name": null,
                  "build_config": { "input_shape": [null, 16, 16, 192] },
                  "name": "block_4_depthwise_relu",
                  "inbound_nodes": [[["block_4_depthwise_BN", 0, 0, {}]]]
                },
                {
                  "module": "keras.layers",
                  "class_name": "Conv2D",
                  "config": {
                    "name": "block_4_project",
                    "trainable": false,
                    "dtype": "float32",
                    "filters": 32,
                    "kernel_size": [1, 1],
                    "strides": [1, 1],
                    "padding": "same",
                    "data_format": "channels_last",
                    "dilation_rate": [1, 1],
                    "groups": 1,
                    "activation": "linear",
                    "use_bias": false,
                    "kernel_initializer": {
                      "module": "keras.initializers",
                      "class_name": "GlorotUniform",
                      "config": { "seed": null },
                      "registered_name": null
                    },
                    "bias_initializer": {
                      "module": "keras.initializers",
                      "class_name": "Zeros",
                      "config": {},
                      "registered_name": null
                    },
                    "kernel_regularizer": null,
                    "bias_regularizer": null,
                    "activity_regularizer": null,
                    "kernel_constraint": null,
                    "bias_constraint": null
                  },
                  "registered_name": null,
                  "build_config": { "input_shape": [null, 16, 16, 192] },
                  "name": "block_4_project",
                  "inbound_nodes": [[["block_4_depthwise_relu", 0, 0, {}]]]
                },
                {
                  "module": "keras.layers",
                  "class_name": "BatchNormalization",
                  "config": {
                    "name": "block_4_project_BN",
                    "trainable": false,
                    "dtype": "float32",
                    "axis": [3],
                    "momentum": 0.999,
                    "epsilon": 0.001,
                    "center": true,
                    "scale": true,
                    "beta_initializer": {
                      "module": "keras.initializers",
                      "class_name": "Zeros",
                      "config": {},
                      "registered_name": null
                    },
                    "gamma_initializer": {
                      "module": "keras.initializers",
                      "class_name": "Ones",
                      "config": {},
                      "registered_name": null
                    },
                    "moving_mean_initializer": {
                      "module": "keras.initializers",
                      "class_name": "Zeros",
                      "config": {},
                      "registered_name": null
                    },
                    "moving_variance_initializer": {
                      "module": "keras.initializers",
                      "class_name": "Ones",
                      "config": {},
                      "registered_name": null
                    },
                    "beta_regularizer": null,
                    "gamma_regularizer": null,
                    "beta_constraint": null,
                    "gamma_constraint": null
                  },
                  "registered_name": null,
                  "build_config": { "input_shape": [null, 16, 16, 32] },
                  "name": "block_4_project_BN",
                  "inbound_nodes": [[["block_4_project", 0, 0, {}]]]
                },
                {
                  "module": "keras.layers",
                  "class_name": "Add",
                  "config": {
                    "name": "block_4_add",
                    "trainable": false,
                    "dtype": "float32"
                  },
                  "registered_name": null,
                  "build_config": {
                    "input_shape": [[null, 16, 16, 32], [null, 16, 16, 32]]
                  },
                  "name": "block_4_add",
                  "inbound_nodes": [
                    [
                      ["block_3_project_BN", 0, 0, {}],
                      ["block_4_project_BN", 0, 0, {}]
                    ]
                  ]
                },
                {
                  "module": "keras.layers",
                  "class_name": "Conv2D",
                  "config": {
                    "name": "block_5_expand",
                    "trainable": false,
                    "dtype": "float32",
                    "filters": 192,
                    "kernel_size": [1, 1],
                    "strides": [1, 1],
                    "padding": "same",
                    "data_format": "channels_last",
                    "dilation_rate": [1, 1],
                    "groups": 1,
                    "activation": "linear",
                    "use_bias": false,
                    "kernel_initializer": {
                      "module": "keras.initializers",
                      "class_name": "GlorotUniform",
                      "config": { "seed": null },
                      "registered_name": null
                    },
                    "bias_initializer": {
                      "module": "keras.initializers",
                      "class_name": "Zeros",
                      "config": {},
                      "registered_name": null
                    },
                    "kernel_regularizer": null,
                    "bias_regularizer": null,
                    "activity_regularizer": null,
                    "kernel_constraint": null,
                    "bias_constraint": null
                  },
                  "registered_name": null,
                  "build_config": { "input_shape": [null, 16, 16, 32] },
                  "name": "block_5_expand",
                  "inbound_nodes": [[["block_4_add", 0, 0, {}]]]
                },
                {
                  "module": "keras.layers",
                  "class_name": "BatchNormalization",
                  "config": {
                    "name": "block_5_expand_BN",
                    "trainable": false,
                    "dtype": "float32",
                    "axis": [3],
                    "momentum": 0.999,
                    "epsilon": 0.001,
                    "center": true,
                    "scale": true,
                    "beta_initializer": {
                      "module": "keras.initializers",
                      "class_name": "Zeros",
                      "config": {},
                      "registered_name": null
                    },
                    "gamma_initializer": {
                      "module": "keras.initializers",
                      "class_name": "Ones",
                      "config": {},
                      "registered_name": null
                    },
                    "moving_mean_initializer": {
                      "module": "keras.initializers",
                      "class_name": "Zeros",
                      "config": {},
                      "registered_name": null
                    },
                    "moving_variance_initializer": {
                      "module": "keras.initializers",
                      "class_name": "Ones",
                      "config": {},
                      "registered_name": null
                    },
                    "beta_regularizer": null,
                    "gamma_regularizer": null,
                    "beta_constraint": null,
                    "gamma_constraint": null
                  },
                  "registered_name": null,
                  "build_config": { "input_shape": [null, 16, 16, 192] },
                  "name": "block_5_expand_BN",
                  "inbound_nodes": [[["block_5_expand", 0, 0, {}]]]
                },
                {
                  "module": "keras.layers",
                  "class_name": "ReLU",
                  "config": {
                    "name": "block_5_expand_relu",
                    "trainable": false,
                    "dtype": "float32",
                    "max_value": 6.0,
                    "negative_slope": 0.0,
                    "threshold": 0.0
                  },
                  "registered_name": null,
                  "build_config": { "input_shape": [null, 16, 16, 192] },
                  "name": "block_5_expand_relu",
                  "inbound_nodes": [[["block_5_expand_BN", 0, 0, {}]]]
                },
                {
                  "module": "keras.layers",
                  "class_name": "DepthwiseConv2D",
                  "config": {
                    "name": "block_5_depthwise",
                    "trainable": false,
                    "dtype": "float32",
                    "kernel_size": [3, 3],
                    "strides": [1, 1],
                    "padding": "same",
                    "data_format": "channels_last",
                    "dilation_rate": [1, 1],
                    "groups": 1,
                    "activation": "linear",
                    "use_bias": false,
                    "bias_initializer": {
                      "module": "keras.initializers",
                      "class_name": "Zeros",
                      "config": {},
                      "registered_name": null
                    },
                    "bias_regularizer": null,
                    "activity_regularizer": null,
                    "bias_constraint": null,
                    "depth_multiplier": 1,
                    "depthwise_initializer": {
                      "module": "keras.initializers",
                      "class_name": "GlorotUniform",
                      "config": { "seed": null },
                      "registered_name": null
                    },
                    "depthwise_regularizer": null,
                    "depthwise_constraint": null
                  },
                  "registered_name": null,
                  "build_config": { "input_shape": [null, 16, 16, 192] },
                  "name": "block_5_depthwise",
                  "inbound_nodes": [[["block_5_expand_relu", 0, 0, {}]]]
                },
                {
                  "module": "keras.layers",
                  "class_name": "BatchNormalization",
                  "config": {
                    "name": "block_5_depthwise_BN",
                    "trainable": false,
                    "dtype": "float32",
                    "axis": [3],
                    "momentum": 0.999,
                    "epsilon": 0.001,
                    "center": true,
                    "scale": true,
                    "beta_initializer": {
                      "module": "keras.initializers",
                      "class_name": "Zeros",
                      "config": {},
                      "registered_name": null
                    },
                    "gamma_initializer": {
                      "module": "keras.initializers",
                      "class_name": "Ones",
                      "config": {},
                      "registered_name": null
                    },
                    "moving_mean_initializer": {
                      "module": "keras.initializers",
                      "class_name": "Zeros",
                      "config": {},
                      "registered_name": null
                    },
                    "moving_variance_initializer": {
                      "module": "keras.initializers",
                      "class_name": "Ones",
                      "config": {},
                      "registered_name": null
                    },
                    "beta_regularizer": null,
                    "gamma_regularizer": null,
                    "beta_constraint": null,
                    "gamma_constraint": null
                  },
                  "registered_name": null,
                  "build_config": { "input_shape": [null, 16, 16, 192] },
                  "name": "block_5_depthwise_BN",
                  "inbound_nodes": [[["block_5_depthwise", 0, 0, {}]]]
                },
                {
                  "module": "keras.layers",
                  "class_name": "ReLU",
                  "config": {
                    "name": "block_5_depthwise_relu",
                    "trainable": false,
                    "dtype": "float32",
                    "max_value": 6.0,
                    "negative_slope": 0.0,
                    "threshold": 0.0
                  },
                  "registered_name": null,
                  "build_config": { "input_shape": [null, 16, 16, 192] },
                  "name": "block_5_depthwise_relu",
                  "inbound_nodes": [[["block_5_depthwise_BN", 0, 0, {}]]]
                },
                {
                  "module": "keras.layers",
                  "class_name": "Conv2D",
                  "config": {
                    "name": "block_5_project",
                    "trainable": false,
                    "dtype": "float32",
                    "filters": 32,
                    "kernel_size": [1, 1],
                    "strides": [1, 1],
                    "padding": "same",
                    "data_format": "channels_last",
                    "dilation_rate": [1, 1],
                    "groups": 1,
                    "activation": "linear",
                    "use_bias": false,
                    "kernel_initializer": {
                      "module": "keras.initializers",
                      "class_name": "GlorotUniform",
                      "config": { "seed": null },
                      "registered_name": null
                    },
                    "bias_initializer": {
                      "module": "keras.initializers",
                      "class_name": "Zeros",
                      "config": {},
                      "registered_name": null
                    },
                    "kernel_regularizer": null,
                    "bias_regularizer": null,
                    "activity_regularizer": null,
                    "kernel_constraint": null,
                    "bias_constraint": null
                  },
                  "registered_name": null,
                  "build_config": { "input_shape": [null, 16, 16, 192] },
                  "name": "block_5_project",
                  "inbound_nodes": [[["block_5_depthwise_relu", 0, 0, {}]]]
                },
                {
                  "module": "keras.layers",
                  "class_name": "BatchNormalization",
                  "config": {
                    "name": "block_5_project_BN",
                    "trainable": false,
                    "dtype": "float32",
                    "axis": [3],
                    "momentum": 0.999,
                    "epsilon": 0.001,
                    "center": true,
                    "scale": true,
                    "beta_initializer": {
                      "module": "keras.initializers",
                      "class_name": "Zeros",
                      "config": {},
                      "registered_name": null
                    },
                    "gamma_initializer": {
                      "module": "keras.initializers",
                      "class_name": "Ones",
                      "config": {},
                      "registered_name": null
                    },
                    "moving_mean_initializer": {
                      "module": "keras.initializers",
                      "class_name": "Zeros",
                      "config": {},
                      "registered_name": null
                    },
                    "moving_variance_initializer": {
                      "module": "keras.initializers",
                      "class_name": "Ones",
                      "config": {},
                      "registered_name": null
                    },
                    "beta_regularizer": null,
                    "gamma_regularizer": null,
                    "beta_constraint": null,
                    "gamma_constraint": null
                  },
                  "registered_name": null,
                  "build_config": { "input_shape": [null, 16, 16, 32] },
                  "name": "block_5_project_BN",
                  "inbound_nodes": [[["block_5_project", 0, 0, {}]]]
                },
                {
                  "module": "keras.layers",
                  "class_name": "Add",
                  "config": {
                    "name": "block_5_add",
                    "trainable": false,
                    "dtype": "float32"
                  },
                  "registered_name": null,
                  "build_config": {
                    "input_shape": [[null, 16, 16, 32], [null, 16, 16, 32]]
                  },
                  "name": "block_5_add",
                  "inbound_nodes": [
                    [
                      ["block_4_add", 0, 0, {}],
                      ["block_5_project_BN", 0, 0, {}]
                    ]
                  ]
                },
                {
                  "module": "keras.layers",
                  "class_name": "Conv2D",
                  "config": {
                    "name": "block_6_expand",
                    "trainable": false,
                    "dtype": "float32",
                    "filters": 192,
                    "kernel_size": [1, 1],
                    "strides": [1, 1],
                    "padding": "same",
                    "data_format": "channels_last",
                    "dilation_rate": [1, 1],
                    "groups": 1,
                    "activation": "linear",
                    "use_bias": false,
                    "kernel_initializer": {
                      "module": "keras.initializers",
                      "class_name": "GlorotUniform",
                      "config": { "seed": null },
                      "registered_name": null
                    },
                    "bias_initializer": {
                      "module": "keras.initializers",
                      "class_name": "Zeros",
                      "config": {},
                      "registered_name": null
                    },
                    "kernel_regularizer": null,
                    "bias_regularizer": null,
                    "activity_regularizer": null,
                    "kernel_constraint": null,
                    "bias_constraint": null
                  },
                  "registered_name": null,
                  "build_config": { "input_shape": [null, 16, 16, 32] },
                  "name": "block_6_expand",
                  "inbound_nodes": [[["block_5_add", 0, 0, {}]]]
                },
                {
                  "module": "keras.layers",
                  "class_name": "BatchNormalization",
                  "config": {
                    "name": "block_6_expand_BN",
                    "trainable": false,
                    "dtype": "float32",
                    "axis": [3],
                    "momentum": 0.999,
                    "epsilon": 0.001,
                    "center": true,
                    "scale": true,
                    "beta_initializer": {
                      "module": "keras.initializers",
                      "class_name": "Zeros",
                      "config": {},
                      "registered_name": null
                    },
                    "gamma_initializer": {
                      "module": "keras.initializers",
                      "class_name": "Ones",
                      "config": {},
                      "registered_name": null
                    },
                    "moving_mean_initializer": {
                      "module": "keras.initializers",
                      "class_name": "Zeros",
                      "config": {},
                      "registered_name": null
                    },
                    "moving_variance_initializer": {
                      "module": "keras.initializers",
                      "class_name": "Ones",
                      "config": {},
                      "registered_name": null
                    },
                    "beta_regularizer": null,
                    "gamma_regularizer": null,
                    "beta_constraint": null,
                    "gamma_constraint": null
                  },
                  "registered_name": null,
                  "build_config": { "input_shape": [null, 16, 16, 192] },
                  "name": "block_6_expand_BN",
                  "inbound_nodes": [[["block_6_expand", 0, 0, {}]]]
                },
                {
                  "module": "keras.layers",
                  "class_name": "ReLU",
                  "config": {
                    "name": "block_6_expand_relu",
                    "trainable": false,
                    "dtype": "float32",
                    "max_value": 6.0,
                    "negative_slope": 0.0,
                    "threshold": 0.0
                  },
                  "registered_name": null,
                  "build_config": { "input_shape": [null, 16, 16, 192] },
                  "name": "block_6_expand_relu",
                  "inbound_nodes": [[["block_6_expand_BN", 0, 0, {}]]]
                },
                {
                  "module": "keras.layers",
                  "class_name": "ZeroPadding2D",
                  "config": {
                    "name": "block_6_pad",
                    "trainable": false,
                    "dtype": "float32",
                    "padding": [[0, 1], [0, 1]],
                    "data_format": "channels_last"
                  },
                  "registered_name": null,
                  "build_config": { "input_shape": [null, 16, 16, 192] },
                  "name": "block_6_pad",
                  "inbound_nodes": [[["block_6_expand_relu", 0, 0, {}]]]
                },
                {
                  "module": "keras.layers",
                  "class_name": "DepthwiseConv2D",
                  "config": {
                    "name": "block_6_depthwise",
                    "trainable": false,
                    "dtype": "float32",
                    "kernel_size": [3, 3],
                    "strides": [2, 2],
                    "padding": "valid",
                    "data_format": "channels_last",
                    "dilation_rate": [1, 1],
                    "groups": 1,
                    "activation": "linear",
                    "use_bias": false,
                    "bias_initializer": {
                      "module": "keras.initializers",
                      "class_name": "Zeros",
                      "config": {},
                      "registered_name": null
                    },
                    "bias_regularizer": null,
                    "activity_regularizer": null,
                    "bias_constraint": null,
                    "depth_multiplier": 1,
                    "depthwise_initializer": {
                      "module": "keras.initializers",
                      "class_name": "GlorotUniform",
                      "config": { "seed": null },
                      "registered_name": null
                    },
                    "depthwise_regularizer": null,
                    "depthwise_constraint": null
                  },
                  "registered_name": null,
                  "build_config": { "input_shape": [null, 17, 17, 192] },
                  "name": "block_6_depthwise",
                  "inbound_nodes": [[["block_6_pad", 0, 0, {}]]]
                },
                {
                  "module": "keras.layers",
                  "class_name": "BatchNormalization",
                  "config": {
                    "name": "block_6_depthwise_BN",
                    "trainable": false,
                    "dtype": "float32",
                    "axis": [3],
                    "momentum": 0.999,
                    "epsilon": 0.001,
                    "center": true,
                    "scale": true,
                    "beta_initializer": {
                      "module": "keras.initializers",
                      "class_name": "Zeros",
                      "config": {},
                      "registered_name": null
                    },
                    "gamma_initializer": {
                      "module": "keras.initializers",
                      "class_name": "Ones",
                      "config": {},
                      "registered_name": null
                    },
                    "moving_mean_initializer": {
                      "module": "keras.initializers",
                      "class_name": "Zeros",
                      "config": {},
                      "registered_name": null
                    },
                    "moving_variance_initializer": {
                      "module": "keras.initializers",
                      "class_name": "Ones",
                      "config": {},
                      "registered_name": null
                    },
                    "beta_regularizer": null,
                    "gamma_regularizer": null,
                    "beta_constraint": null,
                    "gamma_constraint": null
                  },
                  "registered_name": null,
                  "build_config": { "input_shape": [null, 8, 8, 192] },
                  "name": "block_6_depthwise_BN",
                  "inbound_nodes": [[["block_6_depthwise", 0, 0, {}]]]
                },
                {
                  "module": "keras.layers",
                  "class_name": "ReLU",
                  "config": {
                    "name": "block_6_depthwise_relu",
                    "trainable": false,
                    "dtype": "float32",
                    "max_value": 6.0,
                    "negative_slope": 0.0,
                    "threshold": 0.0
                  },
                  "registered_name": null,
                  "build_config": { "input_shape": [null, 8, 8, 192] },
                  "name": "block_6_depthwise_relu",
                  "inbound_nodes": [[["block_6_depthwise_BN", 0, 0, {}]]]
                },
                {
                  "module": "keras.layers",
                  "class_name": "Conv2D",
                  "config": {
                    "name": "block_6_project",
                    "trainable": false,
                    "dtype": "float32",
                    "filters": 64,
                    "kernel_size": [1, 1],
                    "strides": [1, 1],
                    "padding": "same",
                    "data_format": "channels_last",
                    "dilation_rate": [1, 1],
                    "groups": 1,
                    "activation": "linear",
                    "use_bias": false,
                    "kernel_initializer": {
                      "module": "keras.initializers",
                      "class_name": "GlorotUniform",
                      "config": { "seed": null },
                      "registered_name": null
                    },
                    "bias_initializer": {
                      "module": "keras.initializers",
                      "class_name": "Zeros",
                      "config": {},
                      "registered_name": null
                    },
                    "kernel_regularizer": null,
                    "bias_regularizer": null,
                    "activity_regularizer": null,
                    "kernel_constraint": null,
                    "bias_constraint": null
                  },
                  "registered_name": null,
                  "build_config": { "input_shape": [null, 8, 8, 192] },
                  "name": "block_6_project",
                  "inbound_nodes": [[["block_6_depthwise_relu", 0, 0, {}]]]
                },
                {
                  "module": "keras.layers",
                  "class_name": "BatchNormalization",
                  "config": {
                    "name": "block_6_project_BN",
                    "trainable": false,
                    "dtype": "float32",
                    "axis": [3],
                    "momentum": 0.999,
                    "epsilon": 0.001,
                    "center": true,
                    "scale": true,
                    "beta_initializer": {
                      "module": "keras.initializers",
                      "class_name": "Zeros",
                      "config": {},
                      "registered_name": null
                    },
                    "gamma_initializer": {
                      "module": "keras.initializers",
                      "class_name": "Ones",
                      "config": {},
                      "registered_name": null
                    },
                    "moving_mean_initializer": {
                      "module": "keras.initializers",
                      "class_name": "Zeros",
                      "config": {},
                      "registered_name": null
                    },
                    "moving_variance_initializer": {
                      "module": "keras.initializers",
                      "class_name": "Ones",
                      "config": {},
                      "registered_name": null
                    },
                    "beta_regularizer": null,
                    "gamma_regularizer": null,
                    "beta_constraint": null,
                    "gamma_constraint": null
                  },
                  "registered_name": null,
                  "build_config": { "input_shape": [null, 8, 8, 64] },
                  "name": "block_6_project_BN",
                  "inbound_nodes": [[["block_6_project", 0, 0, {}]]]
                },
                {
                  "module": "keras.layers",
                  "class_name": "Conv2D",
                  "config": {
                    "name": "block_7_expand",
                    "trainable": false,
                    "dtype": "float32",
                    "filters": 384,
                    "kernel_size": [1, 1],
                    "strides": [1, 1],
                    "padding": "same",
                    "data_format": "channels_last",
                    "dilation_rate": [1, 1],
                    "groups": 1,
                    "activation": "linear",
                    "use_bias": false,
                    "kernel_initializer": {
                      "module": "keras.initializers",
                      "class_name": "GlorotUniform",
                      "config": { "seed": null },
                      "registered_name": null
                    },
                    "bias_initializer": {
                      "module": "keras.initializers",
                      "class_name": "Zeros",
                      "config": {},
                      "registered_name": null
                    },
                    "kernel_regularizer": null,
                    "bias_regularizer": null,
                    "activity_regularizer": null,
                    "kernel_constraint": null,
                    "bias_constraint": null
                  },
                  "registered_name": null,
                  "build_config": { "input_shape": [null, 8, 8, 64] },
                  "name": "block_7_expand",
                  "inbound_nodes": [[["block_6_project_BN", 0, 0, {}]]]
                },
                {
                  "module": "keras.layers",
                  "class_name": "BatchNormalization",
                  "config": {
                    "name": "block_7_expand_BN",
                    "trainable": false,
                    "dtype": "float32",
                    "axis": [3],
                    "momentum": 0.999,
                    "epsilon": 0.001,
                    "center": true,
                    "scale": true,
                    "beta_initializer": {
                      "module": "keras.initializers",
                      "class_name": "Zeros",
                      "config": {},
                      "registered_name": null
                    },
                    "gamma_initializer": {
                      "module": "keras.initializers",
                      "class_name": "Ones",
                      "config": {},
                      "registered_name": null
                    },
                    "moving_mean_initializer": {
                      "module": "keras.initializers",
                      "class_name": "Zeros",
                      "config": {},
                      "registered_name": null
                    },
                    "moving_variance_initializer": {
                      "module": "keras.initializers",
                      "class_name": "Ones",
                      "config": {},
                      "registered_name": null
                    },
                    "beta_regularizer": null,
                    "gamma_regularizer": null,
                    "beta_constraint": null,
                    "gamma_constraint": null
                  },
                  "registered_name": null,
                  "build_config": { "input_shape": [null, 8, 8, 384] },
                  "name": "block_7_expand_BN",
                  "inbound_nodes": [[["block_7_expand", 0, 0, {}]]]
                },
                {
                  "module": "keras.layers",
                  "class_name": "ReLU",
                  "config": {
                    "name": "block_7_expand_relu",
                    "trainable": false,
                    "dtype": "float32",
                    "max_value": 6.0,
                    "negative_slope": 0.0,
                    "threshold": 0.0
                  },
                  "registered_name": null,
                  "build_config": { "input_shape": [null, 8, 8, 384] },
                  "name": "block_7_expand_relu",
                  "inbound_nodes": [[["block_7_expand_BN", 0, 0, {}]]]
                },
                {
                  "module": "keras.layers",
                  "class_name": "DepthwiseConv2D",
                  "config": {
                    "name": "block_7_depthwise",
                    "trainable": false,
                    "dtype": "float32",
                    "kernel_size": [3, 3],
                    "strides": [1, 1],
                    "padding": "same",
                    "data_format": "channels_last",
                    "dilation_rate": [1, 1],
                    "groups": 1,
                    "activation": "linear",
                    "use_bias": false,
                    "bias_initializer": {
                      "module": "keras.initializers",
                      "class_name": "Zeros",
                      "config": {},
                      "registered_name": null
                    },
                    "bias_regularizer": null,
                    "activity_regularizer": null,
                    "bias_constraint": null,
                    "depth_multiplier": 1,
                    "depthwise_initializer": {
                      "module": "keras.initializers",
                      "class_name": "GlorotUniform",
                      "config": { "seed": null },
                      "registered_name": null
                    },
                    "depthwise_regularizer": null,
                    "depthwise_constraint": null
                  },
                  "registered_name": null,
                  "build_config": { "input_shape": [null, 8, 8, 384] },
                  "name": "block_7_depthwise",
                  "inbound_nodes": [[["block_7_expand_relu", 0, 0, {}]]]
                },
                {
                  "module": "keras.layers",
                  "class_name": "BatchNormalization",
                  "config": {
                    "name": "block_7_depthwise_BN",
                    "trainable": false,
                    "dtype": "float32",
                    "axis": [3],
                    "momentum": 0.999,
                    "epsilon": 0.001,
                    "center": true,
                    "scale": true,
                    "beta_initializer": {
                      "module": "keras.initializers",
                      "class_name": "Zeros",
                      "config": {},
                      "registered_name": null
                    },
                    "gamma_initializer": {
                      "module": "keras.initializers",
                      "class_name": "Ones",
                      "config": {},
                      "registered_name": null
                    },
                    "moving_mean_initializer": {
                      "module": "keras.initializers",
                      "class_name": "Zeros",
                      "config": {},
                      "registered_name": null
                    },
                    "moving_variance_initializer": {
                      "module": "keras.initializers",
                      "class_name": "Ones",
                      "config": {},
                      "registered_name": null
                    },
                    "beta_regularizer": null,
                    "gamma_regularizer": null,
                    "beta_constraint": null,
                    "gamma_constraint": null
                  },
                  "registered_name": null,
                  "build_config": { "input_shape": [null, 8, 8, 384] },
                  "name": "block_7_depthwise_BN",
                  "inbound_nodes": [[["block_7_depthwise", 0, 0, {}]]]
                },
                {
                  "module": "keras.layers",
                  "class_name": "ReLU",
                  "config": {
                    "name": "block_7_depthwise_relu",
                    "trainable": false,
                    "dtype": "float32",
                    "max_value": 6.0,
                    "negative_slope": 0.0,
                    "threshold": 0.0
                  },
                  "registered_name": null,
                  "build_config": { "input_shape": [null, 8, 8, 384] },
                  "name": "block_7_depthwise_relu",
                  "inbound_nodes": [[["block_7_depthwise_BN", 0, 0, {}]]]
                },
                {
                  "module": "keras.layers",
                  "class_name": "Conv2D",
                  "config": {
                    "name": "block_7_project",
                    "trainable": false,
                    "dtype": "float32",
                    "filters": 64,
                    "kernel_size": [1, 1],
                    "strides": [1, 1],
                    "padding": "same",
                    "data_format": "channels_last",
                    "dilation_rate": [1, 1],
                    "groups": 1,
                    "activation": "linear",
                    "use_bias": false,
                    "kernel_initializer": {
                      "module": "keras.initializers",
                      "class_name": "GlorotUniform",
                      "config": { "seed": null },
                      "registered_name": null
                    },
                    "bias_initializer": {
                      "module": "keras.initializers",
                      "class_name": "Zeros",
                      "config": {},
                      "registered_name": null
                    },
                    "kernel_regularizer": null,
                    "bias_regularizer": null,
                    "activity_regularizer": null,
                    "kernel_constraint": null,
                    "bias_constraint": null
                  },
                  "registered_name": null,
                  "build_config": { "input_shape": [null, 8, 8, 384] },
                  "name": "block_7_project",
                  "inbound_nodes": [[["block_7_depthwise_relu", 0, 0, {}]]]
                },
                {
                  "module": "keras.layers",
                  "class_name": "BatchNormalization",
                  "config": {
                    "name": "block_7_project_BN",
                    "trainable": false,
                    "dtype": "float32",
                    "axis": [3],
                    "momentum": 0.999,
                    "epsilon": 0.001,
                    "center": true,
                    "scale": true,
                    "beta_initializer": {
                      "module": "keras.initializers",
                      "class_name": "Zeros",
                      "config": {},
                      "registered_name": null
                    },
                    "gamma_initializer": {
                      "module": "keras.initializers",
                      "class_name": "Ones",
                      "config": {},
                      "registered_name": null
                    },
                    "moving_mean_initializer": {
                      "module": "keras.initializers",
                      "class_name": "Zeros",
                      "config": {},
                      "registered_name": null
                    },
                    "moving_variance_initializer": {
                      "module": "keras.initializers",
                      "class_name": "Ones",
                      "config": {},
                      "registered_name": null
                    },
                    "beta_regularizer": null,
                    "gamma_regularizer": null,
                    "beta_constraint": null,
                    "gamma_constraint": null
                  },
                  "registered_name": null,
                  "build_config": { "input_shape": [null, 8, 8, 64] },
                  "name": "block_7_project_BN",
                  "inbound_nodes": [[["block_7_project", 0, 0, {}]]]
                },
                {
                  "module": "keras.layers",
                  "class_name": "Add",
                  "config": {
                    "name": "block_7_add",
                    "trainable": false,
                    "dtype": "float32"
                  },
                  "registered_name": null,
                  "build_config": {
                    "input_shape": [[null, 8, 8, 64], [null, 8, 8, 64]]
                  },
                  "name": "block_7_add",
                  "inbound_nodes": [
                    [
                      ["block_6_project_BN", 0, 0, {}],
                      ["block_7_project_BN", 0, 0, {}]
                    ]
                  ]
                },
                {
                  "module": "keras.layers",
                  "class_name": "Conv2D",
                  "config": {
                    "name": "block_8_expand",
                    "trainable": false,
                    "dtype": "float32",
                    "filters": 384,
                    "kernel_size": [1, 1],
                    "strides": [1, 1],
                    "padding": "same",
                    "data_format": "channels_last",
                    "dilation_rate": [1, 1],
                    "groups": 1,
                    "activation": "linear",
                    "use_bias": false,
                    "kernel_initializer": {
                      "module": "keras.initializers",
                      "class_name": "GlorotUniform",
                      "config": { "seed": null },
                      "registered_name": null
                    },
                    "bias_initializer": {
                      "module": "keras.initializers",
                      "class_name": "Zeros",
                      "config": {},
                      "registered_name": null
                    },
                    "kernel_regularizer": null,
                    "bias_regularizer": null,
                    "activity_regularizer": null,
                    "kernel_constraint": null,
                    "bias_constraint": null
                  },
                  "registered_name": null,
                  "build_config": { "input_shape": [null, 8, 8, 64] },
                  "name": "block_8_expand",
                  "inbound_nodes": [[["block_7_add", 0, 0, {}]]]
                },
                {
                  "module": "keras.layers",
                  "class_name": "BatchNormalization",
                  "config": {
                    "name": "block_8_expand_BN",
                    "trainable": false,
                    "dtype": "float32",
                    "axis": [3],
                    "momentum": 0.999,
                    "epsilon": 0.001,
                    "center": true,
                    "scale": true,
                    "beta_initializer": {
                      "module": "keras.initializers",
                      "class_name": "Zeros",
                      "config": {},
                      "registered_name": null
                    },
                    "gamma_initializer": {
                      "module": "keras.initializers",
                      "class_name": "Ones",
                      "config": {},
                      "registered_name": null
                    },
                    "moving_mean_initializer": {
                      "module": "keras.initializers",
                      "class_name": "Zeros",
                      "config": {},
                      "registered_name": null
                    },
                    "moving_variance_initializer": {
                      "module": "keras.initializers",
                      "class_name": "Ones",
                      "config": {},
                      "registered_name": null
                    },
                    "beta_regularizer": null,
                    "gamma_regularizer": null,
                    "beta_constraint": null,
                    "gamma_constraint": null
                  },
                  "registered_name": null,
                  "build_config": { "input_shape": [null, 8, 8, 384] },
                  "name": "block_8_expand_BN",
                  "inbound_nodes": [[["block_8_expand", 0, 0, {}]]]
                },
                {
                  "module": "keras.layers",
                  "class_name": "ReLU",
                  "config": {
                    "name": "block_8_expand_relu",
                    "trainable": false,
                    "dtype": "float32",
                    "max_value": 6.0,
                    "negative_slope": 0.0,
                    "threshold": 0.0
                  },
                  "registered_name": null,
                  "build_config": { "input_shape": [null, 8, 8, 384] },
                  "name": "block_8_expand_relu",
                  "inbound_nodes": [[["block_8_expand_BN", 0, 0, {}]]]
                },
                {
                  "module": "keras.layers",
                  "class_name": "DepthwiseConv2D",
                  "config": {
                    "name": "block_8_depthwise",
                    "trainable": false,
                    "dtype": "float32",
                    "kernel_size": [3, 3],
                    "strides": [1, 1],
                    "padding": "same",
                    "data_format": "channels_last",
                    "dilation_rate": [1, 1],
                    "groups": 1,
                    "activation": "linear",
                    "use_bias": false,
                    "bias_initializer": {
                      "module": "keras.initializers",
                      "class_name": "Zeros",
                      "config": {},
                      "registered_name": null
                    },
                    "bias_regularizer": null,
                    "activity_regularizer": null,
                    "bias_constraint": null,
                    "depth_multiplier": 1,
                    "depthwise_initializer": {
                      "module": "keras.initializers",
                      "class_name": "GlorotUniform",
                      "config": { "seed": null },
                      "registered_name": null
                    },
                    "depthwise_regularizer": null,
                    "depthwise_constraint": null
                  },
                  "registered_name": null,
                  "build_config": { "input_shape": [null, 8, 8, 384] },
                  "name": "block_8_depthwise",
                  "inbound_nodes": [[["block_8_expand_relu", 0, 0, {}]]]
                },
                {
                  "module": "keras.layers",
                  "class_name": "BatchNormalization",
                  "config": {
                    "name": "block_8_depthwise_BN",
                    "trainable": false,
                    "dtype": "float32",
                    "axis": [3],
                    "momentum": 0.999,
                    "epsilon": 0.001,
                    "center": true,
                    "scale": true,
                    "beta_initializer": {
                      "module": "keras.initializers",
                      "class_name": "Zeros",
                      "config": {},
                      "registered_name": null
                    },
                    "gamma_initializer": {
                      "module": "keras.initializers",
                      "class_name": "Ones",
                      "config": {},
                      "registered_name": null
                    },
                    "moving_mean_initializer": {
                      "module": "keras.initializers",
                      "class_name": "Zeros",
                      "config": {},
                      "registered_name": null
                    },
                    "moving_variance_initializer": {
                      "module": "keras.initializers",
                      "class_name": "Ones",
                      "config": {},
                      "registered_name": null
                    },
                    "beta_regularizer": null,
                    "gamma_regularizer": null,
                    "beta_constraint": null,
                    "gamma_constraint": null
                  },
                  "registered_name": null,
                  "build_config": { "input_shape": [null, 8, 8, 384] },
                  "name": "block_8_depthwise_BN",
                  "inbound_nodes": [[["block_8_depthwise", 0, 0, {}]]]
                },
                {
                  "module": "keras.layers",
                  "class_name": "ReLU",
                  "config": {
                    "name": "block_8_depthwise_relu",
                    "trainable": false,
                    "dtype": "float32",
                    "max_value": 6.0,
                    "negative_slope": 0.0,
                    "threshold": 0.0
                  },
                  "registered_name": null,
                  "build_config": { "input_shape": [null, 8, 8, 384] },
                  "name": "block_8_depthwise_relu",
                  "inbound_nodes": [[["block_8_depthwise_BN", 0, 0, {}]]]
                },
                {
                  "module": "keras.layers",
                  "class_name": "Conv2D",
                  "config": {
                    "name": "block_8_project",
                    "trainable": false,
                    "dtype": "float32",
                    "filters": 64,
                    "kernel_size": [1, 1],
                    "strides": [1, 1],
                    "padding": "same",
                    "data_format": "channels_last",
                    "dilation_rate": [1, 1],
                    "groups": 1,
                    "activation": "linear",
                    "use_bias": false,
                    "kernel_initializer": {
                      "module": "keras.initializers",
                      "class_name": "GlorotUniform",
                      "config": { "seed": null },
                      "registered_name": null
                    },
                    "bias_initializer": {
                      "module": "keras.initializers",
                      "class_name": "Zeros",
                      "config": {},
                      "registered_name": null
                    },
                    "kernel_regularizer": null,
                    "bias_regularizer": null,
                    "activity_regularizer": null,
                    "kernel_constraint": null,
                    "bias_constraint": null
                  },
                  "registered_name": null,
                  "build_config": { "input_shape": [null, 8, 8, 384] },
                  "name": "block_8_project",
                  "inbound_nodes": [[["block_8_depthwise_relu", 0, 0, {}]]]
                },
                {
                  "module": "keras.layers",
                  "class_name": "BatchNormalization",
                  "config": {
                    "name": "block_8_project_BN",
                    "trainable": false,
                    "dtype": "float32",
                    "axis": [3],
                    "momentum": 0.999,
                    "epsilon": 0.001,
                    "center": true,
                    "scale": true,
                    "beta_initializer": {
                      "module": "keras.initializers",
                      "class_name": "Zeros",
                      "config": {},
                      "registered_name": null
                    },
                    "gamma_initializer": {
                      "module": "keras.initializers",
                      "class_name": "Ones",
                      "config": {},
                      "registered_name": null
                    },
                    "moving_mean_initializer": {
                      "module": "keras.initializers",
                      "class_name": "Zeros",
                      "config": {},
                      "registered_name": null
                    },
                    "moving_variance_initializer": {
                      "module": "keras.initializers",
                      "class_name": "Ones",
                      "config": {},
                      "registered_name": null
                    },
                    "beta_regularizer": null,
                    "gamma_regularizer": null,
                    "beta_constraint": null,
                    "gamma_constraint": null
                  },
                  "registered_name": null,
                  "build_config": { "input_shape": [null, 8, 8, 64] },
                  "name": "block_8_project_BN",
                  "inbound_nodes": [[["block_8_project", 0, 0, {}]]]
                },
                {
                  "module": "keras.layers",
                  "class_name": "Add",
                  "config": {
                    "name": "block_8_add",
                    "trainable": false,
                    "dtype": "float32"
                  },
                  "registered_name": null,
                  "build_config": {
                    "input_shape": [[null, 8, 8, 64], [null, 8, 8, 64]]
                  },
                  "name": "block_8_add",
                  "inbound_nodes": [
                    [
                      ["block_7_add", 0, 0, {}],
                      ["block_8_project_BN", 0, 0, {}]
                    ]
                  ]
                },
                {
                  "module": "keras.layers",
                  "class_name": "Conv2D",
                  "config": {
                    "name": "block_9_expand",
                    "trainable": false,
                    "dtype": "float32",
                    "filters": 384,
                    "kernel_size": [1, 1],
                    "strides": [1, 1],
                    "padding": "same",
                    "data_format": "channels_last",
                    "dilation_rate": [1, 1],
                    "groups": 1,
                    "activation": "linear",
                    "use_bias": false,
                    "kernel_initializer": {
                      "module": "keras.initializers",
                      "class_name": "GlorotUniform",
                      "config": { "seed": null },
                      "registered_name": null
                    },
                    "bias_initializer": {
                      "module": "keras.initializers",
                      "class_name": "Zeros",
                      "config": {},
                      "registered_name": null
                    },
                    "kernel_regularizer": null,
                    "bias_regularizer": null,
                    "activity_regularizer": null,
                    "kernel_constraint": null,
                    "bias_constraint": null
                  },
                  "registered_name": null,
                  "build_config": { "input_shape": [null, 8, 8, 64] },
                  "name": "block_9_expand",
                  "inbound_nodes": [[["block_8_add", 0, 0, {}]]]
                },
                {
                  "module": "keras.layers",
                  "class_name": "BatchNormalization",
                  "config": {
                    "name": "block_9_expand_BN",
                    "trainable": false,
                    "dtype": "float32",
                    "axis": [3],
                    "momentum": 0.999,
                    "epsilon": 0.001,
                    "center": true,
                    "scale": true,
                    "beta_initializer": {
                      "module": "keras.initializers",
                      "class_name": "Zeros",
                      "config": {},
                      "registered_name": null
                    },
                    "gamma_initializer": {
                      "module": "keras.initializers",
                      "class_name": "Ones",
                      "config": {},
                      "registered_name": null
                    },
                    "moving_mean_initializer": {
                      "module": "keras.initializers",
                      "class_name": "Zeros",
                      "config": {},
                      "registered_name": null
                    },
                    "moving_variance_initializer": {
                      "module": "keras.initializers",
                      "class_name": "Ones",
                      "config": {},
                      "registered_name": null
                    },
                    "beta_regularizer": null,
                    "gamma_regularizer": null,
                    "beta_constraint": null,
                    "gamma_constraint": null
                  },
                  "registered_name": null,
                  "build_config": { "input_shape": [null, 8, 8, 384] },
                  "name": "block_9_expand_BN",
                  "inbound_nodes": [[["block_9_expand", 0, 0, {}]]]
                },
                {
                  "module": "keras.layers",
                  "class_name": "ReLU",
                  "config": {
                    "name": "block_9_expand_relu",
                    "trainable": false,
                    "dtype": "float32",
                    "max_value": 6.0,
                    "negative_slope": 0.0,
                    "threshold": 0.0
                  },
                  "registered_name": null,
                  "build_config": { "input_shape": [null, 8, 8, 384] },
                  "name": "block_9_expand_relu",
                  "inbound_nodes": [[["block_9_expand_BN", 0, 0, {}]]]
                },
                {
                  "module": "keras.layers",
                  "class_name": "DepthwiseConv2D",
                  "config": {
                    "name": "block_9_depthwise",
                    "trainable": false,
                    "dtype": "float32",
                    "kernel_size": [3, 3],
                    "strides": [1, 1],
                    "padding": "same",
                    "data_format": "channels_last",
                    "dilation_rate": [1, 1],
                    "groups": 1,
                    "activation": "linear",
                    "use_bias": false,
                    "bias_initializer": {
                      "module": "keras.initializers",
                      "class_name": "Zeros",
                      "config": {},
                      "registered_name": null
                    },
                    "bias_regularizer": null,
                    "activity_regularizer": null,
                    "bias_constraint": null,
                    "depth_multiplier": 1,
                    "depthwise_initializer": {
                      "module": "keras.initializers",
                      "class_name": "GlorotUniform",
                      "config": { "seed": null },
                      "registered_name": null
                    },
                    "depthwise_regularizer": null,
                    "depthwise_constraint": null
                  },
                  "registered_name": null,
                  "build_config": { "input_shape": [null, 8, 8, 384] },
                  "name": "block_9_depthwise",
                  "inbound_nodes": [[["block_9_expand_relu", 0, 0, {}]]]
                },
                {
                  "module": "keras.layers",
                  "class_name": "BatchNormalization",
                  "config": {
                    "name": "block_9_depthwise_BN",
                    "trainable": false,
                    "dtype": "float32",
                    "axis": [3],
                    "momentum": 0.999,
                    "epsilon": 0.001,
                    "center": true,
                    "scale": true,
                    "beta_initializer": {
                      "module": "keras.initializers",
                      "class_name": "Zeros",
                      "config": {},
                      "registered_name": null
                    },
                    "gamma_initializer": {
                      "module": "keras.initializers",
                      "class_name": "Ones",
                      "config": {},
                      "registered_name": null
                    },
                    "moving_mean_initializer": {
                      "module": "keras.initializers",
                      "class_name": "Zeros",
                      "config": {},
                      "registered_name": null
                    },
                    "moving_variance_initializer": {
                      "module": "keras.initializers",
                      "class_name": "Ones",
                      "config": {},
                      "registered_name": null
                    },
                    "beta_regularizer": null,
                    "gamma_regularizer": null,
                    "beta_constraint": null,
                    "gamma_constraint": null
                  },
                  "registered_name": null,
                  "build_config": { "input_shape": [null, 8, 8, 384] },
                  "name": "block_9_depthwise_BN",
                  "inbound_nodes": [[["block_9_depthwise", 0, 0, {}]]]
                },
                {
                  "module": "keras.layers",
                  "class_name": "ReLU",
                  "config": {
                    "name": "block_9_depthwise_relu",
                    "trainable": false,
                    "dtype": "float32",
                    "max_value": 6.0,
                    "negative_slope": 0.0,
                    "threshold": 0.0
                  },
                  "registered_name": null,
                  "build_config": { "input_shape": [null, 8, 8, 384] },
                  "name": "block_9_depthwise_relu",
                  "inbound_nodes": [[["block_9_depthwise_BN", 0, 0, {}]]]
                },
                {
                  "module": "keras.layers",
                  "class_name": "Conv2D",
                  "config": {
                    "name": "block_9_project",
                    "trainable": false,
                    "dtype": "float32",
                    "filters": 64,
                    "kernel_size": [1, 1],
                    "strides": [1, 1],
                    "padding": "same",
                    "data_format": "channels_last",
                    "dilation_rate": [1, 1],
                    "groups": 1,
                    "activation": "linear",
                    "use_bias": false,
                    "kernel_initializer": {
                      "module": "keras.initializers",
                      "class_name": "GlorotUniform",
                      "config": { "seed": null },
                      "registered_name": null
                    },
                    "bias_initializer": {
                      "module": "keras.initializers",
                      "class_name": "Zeros",
                      "config": {},
                      "registered_name": null
                    },
                    "kernel_regularizer": null,
                    "bias_regularizer": null,
                    "activity_regularizer": null,
                    "kernel_constraint": null,
                    "bias_constraint": null
                  },
                  "registered_name": null,
                  "build_config": { "input_shape": [null, 8, 8, 384] },
                  "name": "block_9_project",
                  "inbound_nodes": [[["block_9_depthwise_relu", 0, 0, {}]]]
                },
                {
                  "module": "keras.layers",
                  "class_name": "BatchNormalization",
                  "config": {
                    "name": "block_9_project_BN",
                    "trainable": false,
                    "dtype": "float32",
                    "axis": [3],
                    "momentum": 0.999,
                    "epsilon": 0.001,
                    "center": true,
                    "scale": true,
                    "beta_initializer": {
                      "module": "keras.initializers",
                      "class_name": "Zeros",
                      "config": {},
                      "registered_name": null
                    },
                    "gamma_initializer": {
                      "module": "keras.initializers",
                      "class_name": "Ones",
                      "config": {},
                      "registered_name": null
                    },
                    "moving_mean_initializer": {
                      "module": "keras.initializers",
                      "class_name": "Zeros",
                      "config": {},
                      "registered_name": null
                    },
                    "moving_variance_initializer": {
                      "module": "keras.initializers",
                      "class_name": "Ones",
                      "config": {},
                      "registered_name": null
                    },
                    "beta_regularizer": null,
                    "gamma_regularizer": null,
                    "beta_constraint": null,
                    "gamma_constraint": null
                  },
                  "registered_name": null,
                  "build_config": { "input_shape": [null, 8, 8, 64] },
                  "name": "block_9_project_BN",
                  "inbound_nodes": [[["block_9_project", 0, 0, {}]]]
                },
                {
                  "module": "keras.layers",
                  "class_name": "Add",
                  "config": {
                    "name": "block_9_add",
                    "trainable": false,
                    "dtype": "float32"
                  },
                  "registered_name": null,
                  "build_config": {
                    "input_shape": [[null, 8, 8, 64], [null, 8, 8, 64]]
                  },
                  "name": "block_9_add",
                  "inbound_nodes": [
                    [
                      ["block_8_add", 0, 0, {}],
                      ["block_9_project_BN", 0, 0, {}]
                    ]
                  ]
                },
                {
                  "module": "keras.layers",
                  "class_name": "Conv2D",
                  "config": {
                    "name": "block_10_expand",
                    "trainable": false,
                    "dtype": "float32",
                    "filters": 384,
                    "kernel_size": [1, 1],
                    "strides": [1, 1],
                    "padding": "same",
                    "data_format": "channels_last",
                    "dilation_rate": [1, 1],
                    "groups": 1,
                    "activation": "linear",
                    "use_bias": false,
                    "kernel_initializer": {
                      "module": "keras.initializers",
                      "class_name": "GlorotUniform",
                      "config": { "seed": null },
                      "registered_name": null
                    },
                    "bias_initializer": {
                      "module": "keras.initializers",
                      "class_name": "Zeros",
                      "config": {},
                      "registered_name": null
                    },
                    "kernel_regularizer": null,
                    "bias_regularizer": null,
                    "activity_regularizer": null,
                    "kernel_constraint": null,
                    "bias_constraint": null
                  },
                  "registered_name": null,
                  "build_config": { "input_shape": [null, 8, 8, 64] },
                  "name": "block_10_expand",
                  "inbound_nodes": [[["block_9_add", 0, 0, {}]]]
                },
                {
                  "module": "keras.layers",
                  "class_name": "BatchNormalization",
                  "config": {
                    "name": "block_10_expand_BN",
                    "trainable": false,
                    "dtype": "float32",
                    "axis": [3],
                    "momentum": 0.999,
                    "epsilon": 0.001,
                    "center": true,
                    "scale": true,
                    "beta_initializer": {
                      "module": "keras.initializers",
                      "class_name": "Zeros",
                      "config": {},
                      "registered_name": null
                    },
                    "gamma_initializer": {
                      "module": "keras.initializers",
                      "class_name": "Ones",
                      "config": {},
                      "registered_name": null
                    },
                    "moving_mean_initializer": {
                      "module": "keras.initializers",
                      "class_name": "Zeros",
                      "config": {},
                      "registered_name": null
                    },
                    "moving_variance_initializer": {
                      "module": "keras.initializers",
                      "class_name": "Ones",
                      "config": {},
                      "registered_name": null
                    },
                    "beta_regularizer": null,
                    "gamma_regularizer": null,
                    "beta_constraint": null,
                    "gamma_constraint": null
                  },
                  "registered_name": null,
                  "build_config": { "input_shape": [null, 8, 8, 384] },
                  "name": "block_10_expand_BN",
                  "inbound_nodes": [[["block_10_expand", 0, 0, {}]]]
                },
                {
                  "module": "keras.layers",
                  "class_name": "ReLU",
                  "config": {
                    "name": "block_10_expand_relu",
                    "trainable": false,
                    "dtype": "float32",
                    "max_value": 6.0,
                    "negative_slope": 0.0,
                    "threshold": 0.0
                  },
                  "registered_name": null,
                  "build_config": { "input_shape": [null, 8, 8, 384] },
                  "name": "block_10_expand_relu",
                  "inbound_nodes": [[["block_10_expand_BN", 0, 0, {}]]]
                },
                {
                  "module": "keras.layers",
                  "class_name": "DepthwiseConv2D",
                  "config": {
                    "name": "block_10_depthwise",
                    "trainable": false,
                    "dtype": "float32",
                    "kernel_size": [3, 3],
                    "strides": [1, 1],
                    "padding": "same",
                    "data_format": "channels_last",
                    "dilation_rate": [1, 1],
                    "groups": 1,
                    "activation": "linear",
                    "use_bias": false,
                    "bias_initializer": {
                      "module": "keras.initializers",
                      "class_name": "Zeros",
                      "config": {},
                      "registered_name": null
                    },
                    "bias_regularizer": null,
                    "activity_regularizer": null,
                    "bias_constraint": null,
                    "depth_multiplier": 1,
                    "depthwise_initializer": {
                      "module": "keras.initializers",
                      "class_name": "GlorotUniform",
                      "config": { "seed": null },
                      "registered_name": null
                    },
                    "depthwise_regularizer": null,
                    "depthwise_constraint": null
                  },
                  "registered_name": null,
                  "build_config": { "input_shape": [null, 8, 8, 384] },
                  "name": "block_10_depthwise",
                  "inbound_nodes": [[["block_10_expand_relu", 0, 0, {}]]]
                },
                {
                  "module": "keras.layers",
                  "class_name": "BatchNormalization",
                  "config": {
                    "name": "block_10_depthwise_BN",
                    "trainable": false,
                    "dtype": "float32",
                    "axis": [3],
                    "momentum": 0.999,
                    "epsilon": 0.001,
                    "center": true,
                    "scale": true,
                    "beta_initializer": {
                      "module": "keras.initializers",
                      "class_name": "Zeros",
                      "config": {},
                      "registered_name": null
                    },
                    "gamma_initializer": {
                      "module": "keras.initializers",
                      "class_name": "Ones",
                      "config": {},
                      "registered_name": null
                    },
                    "moving_mean_initializer": {
                      "module": "keras.initializers",
                      "class_name": "Zeros",
                      "config": {},
                      "registered_name": null
                    },
                    "moving_variance_initializer": {
                      "module": "keras.initializers",
                      "class_name": "Ones",
                      "config": {},
                      "registered_name": null
                    },
                    "beta_regularizer": null,
                    "gamma_regularizer": null,
                    "beta_constraint": null,
                    "gamma_constraint": null
                  },
                  "registered_name": null,
                  "build_config": { "input_shape": [null, 8, 8, 384] },
                  "name": "block_10_depthwise_BN",
                  "inbound_nodes": [[["block_10_depthwise", 0, 0, {}]]]
                },
                {
                  "module": "keras.layers",
                  "class_name": "ReLU",
                  "config": {
                    "name": "block_10_depthwise_relu",
                    "trainable": false,
                    "dtype": "float32",
                    "max_value": 6.0,
                    "negative_slope": 0.0,
                    "threshold": 0.0
                  },
                  "registered_name": null,
                  "build_config": { "input_shape": [null, 8, 8, 384] },
                  "name": "block_10_depthwise_relu",
                  "inbound_nodes": [[["block_10_depthwise_BN", 0, 0, {}]]]
                },
                {
                  "module": "keras.layers",
                  "class_name": "Conv2D",
                  "config": {
                    "name": "block_10_project",
                    "trainable": false,
                    "dtype": "float32",
                    "filters": 96,
                    "kernel_size": [1, 1],
                    "strides": [1, 1],
                    "padding": "same",
                    "data_format": "channels_last",
                    "dilation_rate": [1, 1],
                    "groups": 1,
                    "activation": "linear",
                    "use_bias": false,
                    "kernel_initializer": {
                      "module": "keras.initializers",
                      "class_name": "GlorotUniform",
                      "config": { "seed": null },
                      "registered_name": null
                    },
                    "bias_initializer": {
                      "module": "keras.initializers",
                      "class_name": "Zeros",
                      "config": {},
                      "registered_name": null
                    },
                    "kernel_regularizer": null,
                    "bias_regularizer": null,
                    "activity_regularizer": null,
                    "kernel_constraint": null,
                    "bias_constraint": null
                  },
                  "registered_name": null,
                  "build_config": { "input_shape": [null, 8, 8, 384] },
                  "name": "block_10_project",
                  "inbound_nodes": [[["block_10_depthwise_relu", 0, 0, {}]]]
                },
                {
                  "module": "keras.layers",
                  "class_name": "BatchNormalization",
                  "config": {
                    "name": "block_10_project_BN",
                    "trainable": false,
                    "dtype": "float32",
                    "axis": [3],
                    "momentum": 0.999,
                    "epsilon": 0.001,
                    "center": true,
                    "scale": true,
                    "beta_initializer": {
                      "module": "keras.initializers",
                      "class_name": "Zeros",
                      "config": {},
                      "registered_name": null
                    },
                    "gamma_initializer": {
                      "module": "keras.initializers",
                      "class_name": "Ones",
                      "config": {},
                      "registered_name": null
                    },
                    "moving_mean_initializer": {
                      "module": "keras.initializers",
                      "class_name": "Zeros",
                      "config": {},
                      "registered_name": null
                    },
                    "moving_variance_initializer": {
                      "module": "keras.initializers",
                      "class_name": "Ones",
                      "config": {},
                      "registered_name": null
                    },
                    "beta_regularizer": null,
                    "gamma_regularizer": null,
                    "beta_constraint": null,
                    "gamma_constraint": null
                  },
                  "registered_name": null,
                  "build_config": { "input_shape": [null, 8, 8, 96] },
                  "name": "block_10_project_BN",
                  "inbound_nodes": [[["block_10_project", 0, 0, {}]]]
                },
                {
                  "module": "keras.layers",
                  "class_name": "Conv2D",
                  "config": {
                    "name": "block_11_expand",
                    "trainable": false,
                    "dtype": "float32",
                    "filters": 576,
                    "kernel_size": [1, 1],
                    "strides": [1, 1],
                    "padding": "same",
                    "data_format": "channels_last",
                    "dilation_rate": [1, 1],
                    "groups": 1,
                    "activation": "linear",
                    "use_bias": false,
                    "kernel_initializer": {
                      "module": "keras.initializers",
                      "class_name": "GlorotUniform",
                      "config": { "seed": null },
                      "registered_name": null
                    },
                    "bias_initializer": {
                      "module": "keras.initializers",
                      "class_name": "Zeros",
                      "config": {},
                      "registered_name": null
                    },
                    "kernel_regularizer": null,
                    "bias_regularizer": null,
                    "activity_regularizer": null,
                    "kernel_constraint": null,
                    "bias_constraint": null
                  },
                  "registered_name": null,
                  "build_config": { "input_shape": [null, 8, 8, 96] },
                  "name": "block_11_expand",
                  "inbound_nodes": [[["block_10_project_BN", 0, 0, {}]]]
                },
                {
                  "module": "keras.layers",
                  "class_name": "BatchNormalization",
                  "config": {
                    "name": "block_11_expand_BN",
                    "trainable": false,
                    "dtype": "float32",
                    "axis": [3],
                    "momentum": 0.999,
                    "epsilon": 0.001,
                    "center": true,
                    "scale": true,
                    "beta_initializer": {
                      "module": "keras.initializers",
                      "class_name": "Zeros",
                      "config": {},
                      "registered_name": null
                    },
                    "gamma_initializer": {
                      "module": "keras.initializers",
                      "class_name": "Ones",
                      "config": {},
                      "registered_name": null
                    },
                    "moving_mean_initializer": {
                      "module": "keras.initializers",
                      "class_name": "Zeros",
                      "config": {},
                      "registered_name": null
                    },
                    "moving_variance_initializer": {
                      "module": "keras.initializers",
                      "class_name": "Ones",
                      "config": {},
                      "registered_name": null
                    },
                    "beta_regularizer": null,
                    "gamma_regularizer": null,
                    "beta_constraint": null,
                    "gamma_constraint": null
                  },
                  "registered_name": null,
                  "build_config": { "input_shape": [null, 8, 8, 576] },
                  "name": "block_11_expand_BN",
                  "inbound_nodes": [[["block_11_expand", 0, 0, {}]]]
                },
                {
                  "module": "keras.layers",
                  "class_name": "ReLU",
                  "config": {
                    "name": "block_11_expand_relu",
                    "trainable": false,
                    "dtype": "float32",
                    "max_value": 6.0,
                    "negative_slope": 0.0,
                    "threshold": 0.0
                  },
                  "registered_name": null,
                  "build_config": { "input_shape": [null, 8, 8, 576] },
                  "name": "block_11_expand_relu",
                  "inbound_nodes": [[["block_11_expand_BN", 0, 0, {}]]]
                },
                {
                  "module": "keras.layers",
                  "class_name": "DepthwiseConv2D",
                  "config": {
                    "name": "block_11_depthwise",
                    "trainable": false,
                    "dtype": "float32",
                    "kernel_size": [3, 3],
                    "strides": [1, 1],
                    "padding": "same",
                    "data_format": "channels_last",
                    "dilation_rate": [1, 1],
                    "groups": 1,
                    "activation": "linear",
                    "use_bias": false,
                    "bias_initializer": {
                      "module": "keras.initializers",
                      "class_name": "Zeros",
                      "config": {},
                      "registered_name": null
                    },
                    "bias_regularizer": null,
                    "activity_regularizer": null,
                    "bias_constraint": null,
                    "depth_multiplier": 1,
                    "depthwise_initializer": {
                      "module": "keras.initializers",
                      "class_name": "GlorotUniform",
                      "config": { "seed": null },
                      "registered_name": null
                    },
                    "depthwise_regularizer": null,
                    "depthwise_constraint": null
                  },
                  "registered_name": null,
                  "build_config": { "input_shape": [null, 8, 8, 576] },
                  "name": "block_11_depthwise",
                  "inbound_nodes": [[["block_11_expand_relu", 0, 0, {}]]]
                },
                {
                  "module": "keras.layers",
                  "class_name": "BatchNormalization",
                  "config": {
                    "name": "block_11_depthwise_BN",
                    "trainable": false,
                    "dtype": "float32",
                    "axis": [3],
                    "momentum": 0.999,
                    "epsilon": 0.001,
                    "center": true,
                    "scale": true,
                    "beta_initializer": {
                      "module": "keras.initializers",
                      "class_name": "Zeros",
                      "config": {},
                      "registered_name": null
                    },
                    "gamma_initializer": {
                      "module": "keras.initializers",
                      "class_name": "Ones",
                      "config": {},
                      "registered_name": null
                    },
                    "moving_mean_initializer": {
                      "module": "keras.initializers",
                      "class_name": "Zeros",
                      "config": {},
                      "registered_name": null
                    },
                    "moving_variance_initializer": {
                      "module": "keras.initializers",
                      "class_name": "Ones",
                      "config": {},
                      "registered_name": null
                    },
                    "beta_regularizer": null,
                    "gamma_regularizer": null,
                    "beta_constraint": null,
                    "gamma_constraint": null
                  },
                  "registered_name": null,
                  "build_config": { "input_shape": [null, 8, 8, 576] },
                  "name": "block_11_depthwise_BN",
                  "inbound_nodes": [[["block_11_depthwise", 0, 0, {}]]]
                },
                {
                  "module": "keras.layers",
                  "class_name": "ReLU",
                  "config": {
                    "name": "block_11_depthwise_relu",
                    "trainable": false,
                    "dtype": "float32",
                    "max_value": 6.0,
                    "negative_slope": 0.0,
                    "threshold": 0.0
                  },
                  "registered_name": null,
                  "build_config": { "input_shape": [null, 8, 8, 576] },
                  "name": "block_11_depthwise_relu",
                  "inbound_nodes": [[["block_11_depthwise_BN", 0, 0, {}]]]
                },
                {
                  "module": "keras.layers",
                  "class_name": "Conv2D",
                  "config": {
                    "name": "block_11_project",
                    "trainable": false,
                    "dtype": "float32",
                    "filters": 96,
                    "kernel_size": [1, 1],
                    "strides": [1, 1],
                    "padding": "same",
                    "data_format": "channels_last",
                    "dilation_rate": [1, 1],
                    "groups": 1,
                    "activation": "linear",
                    "use_bias": false,
                    "kernel_initializer": {
                      "module": "keras.initializers",
                      "class_name": "GlorotUniform",
                      "config": { "seed": null },
                      "registered_name": null
                    },
                    "bias_initializer": {
                      "module": "keras.initializers",
                      "class_name": "Zeros",
                      "config": {},
                      "registered_name": null
                    },
                    "kernel_regularizer": null,
                    "bias_regularizer": null,
                    "activity_regularizer": null,
…
            "scale": 5.2322383385662936e-5,
            "original_dtype": "float32"
          }
        },
        {
          "name": "block_4_project_BN/moving_mean",
          "shape": [32],
          "dtype": "float32",
          "quantization": {
            "dtype": "uint8",
            "min": -3.4036554336547855,
            "scale": 0.02181830406188965,
            "original_dtype": "float32"
          }
        },
        {
          "name": "block_4_project_BN/moving_variance",
          "shape": [32],
          "dtype": "float32",
          "quantization": {
            "dtype": "uint8",
            "min": 0.19108472764492035,
            "scale": 0.003763686967831032,
            "original_dtype": "float32"
          }
        },
        {
          "name": "block_5_expand/kernel",
          "shape": [1, 1, 32, 192],
          "dtype": "float32",
          "quantization": {
            "dtype": "uint8",
            "min": -0.40439891160703173,
            "scale": 0.003779429080439549,
            "original_dtype": "float32"
          }
        },
        {
          "name": "block_5_expand_BN/gamma",
          "shape": [192],
          "dtype": "float32",
          "quantization": {
            "dtype": "uint8",
            "min": 0.16983626782894135,
            "scale": 0.006990174277156007,
            "original_dtype": "float32"
          }
        },
        {
          "name": "block_5_expand_BN/beta",
          "shape": [192],
          "dtype": "float32",
          "quantization": {
            "dtype": "uint8",
            "min": -1.5975473964915556,
            "scale": 0.0183626137527765,
            "original_dtype": "float32"
          }
        },
        {
          "name": "block_5_expand_BN/moving_mean",
          "shape": [192],
          "dtype": "float32",
          "quantization": {
            "dtype": "uint8",
            "min": -0.01480954342028674,
            "scale": 9.314178251752667e-5,
            "original_dtype": "float32"
          }
        },
        {
          "name": "block_5_expand_BN/moving_variance",
          "shape": [192],
          "dtype": "float32",
          "quantization": {
            "dtype": "uint8",
            "min": 2.0942189693450928,
            "scale": 0.07472851416643927,
            "original_dtype": "float32"
          }
        },
        {
          "name": "block_5_depthwise/depthwise_kernel",
          "shape": [3, 3, 192, 1],
          "dtype": "float32",
          "quantization": {
            "dtype": "uint8",
            "min": -4.191791440926346,
            "scale": 0.03224454954558728,
            "original_dtype": "float32"
          }
        },
        {
          "name": "block_5_depthwise_BN/gamma",
          "shape": [192],
          "dtype": "float32",
          "quantization": {
            "dtype": "uint8",
            "min": 0.43198058009147644,
            "scale": 0.009650184710820516,
            "original_dtype": "float32"
          }
        },
        {
          "name": "block_5_depthwise_BN/beta",
          "shape": [192],
          "dtype": "float32",
          "quantization": {
            "dtype": "uint8",
            "min": -3.3726480820599725,
            "scale": 0.026144558775658702,
            "original_dtype": "float32"
          }
        },
        {
          "name": "block_5_depthwise_BN/moving_mean",
          "shape": [192],
          "dtype": "float32",
          "quantization": {
            "dtype": "uint8",
            "min": -14.415502323823816,
            "scale": 0.08053353253532858,
            "original_dtype": "float32"
          }
        },
        {
          "name": "block_5_depthwise_BN/moving_variance",
          "shape": [192],
          "dtype": "float32",
          "quantization": {
            "dtype": "uint8",
            "min": 0.20519259572029114,
            "scale": 0.05699287103671653,
            "original_dtype": "float32"
          }
        },
        {
          "name": "block_5_project/kernel",
          "shape": [1, 1, 192, 32],
          "dtype": "float32",
          "quantization": {
            "dtype": "uint8",
            "min": -0.5342942354725856,
            "scale": 0.003403147996640673,
            "original_dtype": "float32"
          }
        },
        {
          "name": "block_5_project_BN/gamma",
          "shape": [32],
          "dtype": "float32",
          "quantization": {
            "dtype": "uint8",
            "min": 1.1710351705551147,
            "scale": 0.013657757347705317,
            "original_dtype": "float32"
          }
        },
        {
          "name": "block_5_project_BN/beta",
          "shape": [32],
          "dtype": "float32",
          "quantization": {
            "dtype": "uint8",
            "min": -0.006153196640604851,
            "scale": 4.214518246989624e-5,
            "original_dtype": "float32"
          }
        },
        {
          "name": "block_5_project_BN/moving_mean",
          "shape": [32],
          "dtype": "float32",
          "quantization": {
            "dtype": "uint8",
            "min": -1.4332645042269836,
            "scale": 0.01666586632822074,
            "original_dtype": "float32"
          }
        },
        {
          "name": "block_5_project_BN/moving_variance",
          "shape": [32],
          "dtype": "float32",
          "quantization": {
            "dtype": "uint8",
            "min": 0.11819633096456528,
            "scale": 0.0014318397524310093,
            "original_dtype": "float32"
          }
        },
        {
          "name": "block_6_expand/kernel",
          "shape": [1, 1, 32, 192],
          "dtype": "float32",
          "quantization": {
            "dtype": "uint8",
            "min": -0.5288866498891045,
            "scale": 0.0042998914625130445,
            "original_dtype": "float32"
          }
        },
        {
          "name": "block_6_expand_BN/gamma",
          "shape": [192],
          "dtype": "float32",
          "quantization": {
            "dtype": "uint8",
            "min": 0.5309550166130066,
            "scale": 0.008373665575887642,
            "original_dtype": "float32"
          }
        },
        {
          "name": "block_6_expand_BN/beta",
          "shape": [192],
          "dtype": "float32",
          "quantization": {
            "dtype": "uint8",
            "min": -2.833883167715634,
            "scale": 0.019278116787181183,
            "original_dtype": "float32"
          }
        },
        {
          "name": "block_6_expand_BN/moving_mean",
          "shape": [192],
          "dtype": "float32",
          "quantization": {
            "dtype": "uint8",
            "min": -0.019453751251978034,
            "scale": 0.000147376903424076,
            "original_dtype": "float32"
          }
        },
        {
          "name": "block_6_expand_BN/moving_variance",
          "shape": [192],
          "dtype": "float32",
          "quantization": {
            "dtype": "uint8",
            "min": 3.1593167781829834,
            "scale": 0.14122197861764946,
            "original_dtype": "float32"
          }
        },
        {
          "name": "block_6_depthwise/depthwise_kernel",
          "shape": [3, 3, 192, 1],
          "dtype": "float32",
          "quantization": {
            "dtype": "uint8",
            "min": -2.2358850544574214,
            "scale": 0.0184783888798134,
            "original_dtype": "float32"
          }
        },
        {
          "name": "block_6_depthwise_BN/gamma",
          "shape": [192],
          "dtype": "float32",
          "quantization": {
            "dtype": "uint8",
            "min": 0.34831637144088745,
            "scale": 0.008499991893768311,
            "original_dtype": "float32"
          }
        },
        {
          "name": "block_6_depthwise_BN/beta",
          "shape": [192],
          "dtype": "float32",
          "quantization": {
            "dtype": "uint8",
            "min": -1.0986620398128735,
            "scale": 0.02496959181392894,
            "original_dtype": "float32"
          }
        },
        {
          "name": "block_6_depthwise_BN/moving_mean",
          "shape": [192],
          "dtype": "float32",
          "quantization": {
            "dtype": "uint8",
            "min": -15.700572189630247,
            "scale": 0.12661751765830845,
            "original_dtype": "float32"
          }
        },
        {
          "name": "block_6_depthwise_BN/moving_variance",
          "shape": [192],
          "dtype": "float32",
          "quantization": {
            "dtype": "uint8",
            "min": 0.23749925196170807,
            "scale": 0.3232950396981894,
            "original_dtype": "float32"
          }
        },
        {
          "name": "block_6_project/kernel",
          "shape": [1, 1, 192, 64],
          "dtype": "float32",
          "quantization": {
            "dtype": "uint8",
            "min": -0.8663834894404693,
            "scale": 0.005775889929603128,
            "original_dtype": "float32"
          }
        },
        {
          "name": "block_6_project_BN/gamma",
          "shape": [64],
          "dtype": "float32",
          "quantization": {
            "dtype": "uint8",
            "min": 1.5595062971115112,
            "scale": 0.020355604676639334,
            "original_dtype": "float32"
          }
        },
        {
          "name": "block_6_project_BN/beta",
          "shape": [64],
          "dtype": "float32",
          "quantization": {
            "dtype": "uint8",
            "min": -0.00477248273570748,
            "scale": 3.787684710878952e-5,
            "original_dtype": "float32"
          }
        },
        {
          "name": "block_6_project_BN/moving_mean",
          "shape": [64],
          "dtype": "float32",
          "quantization": {
            "dtype": "uint8",
            "min": -5.047575204512652,
            "scale": 0.04630802939919865,
            "original_dtype": "float32"
          }
        },
        {
          "name": "block_6_project_BN/moving_variance",
          "shape": [64],
          "dtype": "float32",
          "quantization": {
            "dtype": "uint8",
            "min": 0.28227096796035767,
            "scale": 0.030955200335558722,
            "original_dtype": "float32"
          }
        },
        {
          "name": "block_7_expand/kernel",
          "shape": [1, 1, 64, 384],
          "dtype": "float32",
          "quantization": {
            "dtype": "uint8",
            "min": -0.30502842769903293,
            "scale": 0.002226484873715569,
            "original_dtype": "float32"
          }
        },
        {
          "name": "block_7_expand_BN/gamma",
          "shape": [384],
          "dtype": "float32",
          "quantization": {
            "dtype": "uint8",
            "min": 0.09540627151727676,
            "scale": 0.0061224971039622435,
            "original_dtype": "float32"
          }
        },
        {
          "name": "block_7_expand_BN/beta",
          "shape": [384],
          "dtype": "float32",
          "quantization": {
            "dtype": "uint8",
            "min": -1.8028675472035125,
            "scale": 0.019385672550575404,
            "original_dtype": "float32"
          }
        },
        {
          "name": "block_7_expand_BN/moving_mean",
          "shape": [384],
          "dtype": "float32",
          "quantization": {
            "dtype": "uint8",
            "min": -0.0021921036929330403,
            "scale": 1.6481982653631883e-5,
            "original_dtype": "float32"
          }
        },
        {
          "name": "block_7_expand_BN/moving_variance",
          "shape": [384],
          "dtype": "float32",
          "quantization": {
            "dtype": "uint8",
            "min": 4.082766652210309e-33,
            "scale": 0.026711235794366576,
            "original_dtype": "float32"
          }
        },
        {
          "name": "block_7_depthwise/depthwise_kernel",
          "shape": [3, 3, 384, 1],
          "dtype": "float32",
          "quantization": {
            "dtype": "uint8",
            "min": -2.9746632024353628,
            "scale": 0.020801840576471067,
            "original_dtype": "float32"
          }
        },
        {
          "name": "block_7_depthwise_BN/gamma",
          "shape": [384],
          "dtype": "float32",
          "quantization": {
            "dtype": "uint8",
            "min": 0.25867873430252075,
            "scale": 0.011935574166914997,
            "original_dtype": "float32"
          }
        },
        {
          "name": "block_7_depthwise_BN/beta",
          "shape": [384],
          "dtype": "float32",
          "quantization": {
            "dtype": "uint8",
            "min": -4.270991397371479,
            "scale": 0.025272138445985085,
            "original_dtype": "float32"
          }
        },
        {
          "name": "block_7_depthwise_BN/moving_mean",
          "shape": [384],
          "dtype": "float32",
          "quantization": {
            "dtype": "uint8",
            "min": -19.20498040891161,
            "scale": 0.08573651968264112,
            "original_dtype": "float32"
          }
        },
        {
          "name": "block_7_depthwise_BN/moving_variance",
          "shape": [384],
          "dtype": "float32",
          "quantization": {
            "dtype": "uint8",
            "min": 3.9165482239470135e-36,
            "scale": 0.10956105250938265,
            "original_dtype": "float32"
          }
        },
        {
          "name": "block_7_project/kernel",
          "shape": [1, 1, 384, 64],
          "dtype": "float32",
          "quantization": {
            "dtype": "uint8",
            "min": -0.4507427047280704,
            "scale": 0.004024488435072057,
            "original_dtype": "float32"
          }
        },
        {
          "name": "block_7_project_BN/gamma",
          "shape": [64],
          "dtype": "float32",
          "quantization": {
            "dtype": "uint8",
            "min": 0.6518726944923401,
            "scale": 0.021638378208758784,
            "original_dtype": "float32"
          }
        },
        {
          "name": "block_7_project_BN/beta",
          "shape": [64],
          "dtype": "float32",
          "quantization": {
            "dtype": "uint8",
            "min": -0.005394851664702097,
            "scale": 3.966802694633895e-5,
            "original_dtype": "float32"
          }
        },
        {
          "name": "block_7_project_BN/moving_mean",
          "shape": [64],
          "dtype": "float32",
          "quantization": {
            "dtype": "uint8",
            "min": -2.1909449521233055,
            "scale": 0.017812560586368337,
            "original_dtype": "float32"
          }
        },
        {
          "name": "block_7_project_BN/moving_variance",
          "shape": [64],
          "dtype": "float32",
          "quantization": {
            "dtype": "uint8",
            "min": 0.09652728587388992,
            "scale": 0.003259769345031065,
            "original_dtype": "float32"
          }
        },
        {
          "name": "block_8_expand/kernel",
          "shape": [1, 1, 64, 384],
          "dtype": "float32",
          "quantization": {
            "dtype": "uint8",
            "min": -0.45635836439974165,
            "scale": 0.003593372948029462,
            "original_dtype": "float32"
          }
        },
        {
          "name": "block_8_expand_BN/gamma",
          "shape": [384],
          "dtype": "float32",
          "quantization": {
            "dtype": "uint8",
            "min": 0.32445502281188965,
            "scale": 0.0056298499013863355,
            "original_dtype": "float32"
          }
        },
        {
          "name": "block_8_expand_BN/beta",
          "shape": [384],
          "dtype": "float32",
          "quantization": {
            "dtype": "uint8",
            "min": -1.614145828695858,
            "scale": 0.017545063355389762,
            "original_dtype": "float32"
          }
        },
        {
          "name": "block_8_expand_BN/moving_mean",
          "shape": [384],
          "dtype": "float32",
          "quantization": {
            "dtype": "uint8",
            "min": -0.0036024005179676943,
            "scale": 3.07897480168179e-5,
            "original_dtype": "float32"
          }
        },
        {
          "name": "block_8_expand_BN/moving_variance",
          "shape": [384],
          "dtype": "float32",
          "quantization": {
            "dtype": "uint8",
            "min": 1.248681664466858,
            "scale": 0.043470387832791196,
            "original_dtype": "float32"
          }
        },
        {
          "name": "block_8_depthwise/depthwise_kernel",
          "shape": [3, 3, 384, 1],
          "dtype": "float32",
          "quantization": {
            "dtype": "uint8",
            "min": -2.4855594074024876,
            "scale": 0.022595994612749887,
            "original_dtype": "float32"
          }
        },
        {
          "name": "block_8_depthwise_BN/gamma",
          "shape": [384],
          "dtype": "float32",
          "quantization": {
            "dtype": "uint8",
            "min": 0.2544711232185364,
            "scale": 0.009983751586839264,
            "original_dtype": "float32"
          }
        },
        {
          "name": "block_8_depthwise_BN/beta",
          "shape": [384],
          "dtype": "float32",
          "quantization": {
            "dtype": "uint8",
            "min": -3.341497003798391,
            "scale": 0.020499981618395037,
            "original_dtype": "float32"
          }
        },
        {
          "name": "block_8_depthwise_BN/moving_mean",
          "shape": [384],
          "dtype": "float32",
          "quantization": {
            "dtype": "uint8",
            "min": -13.204145596074122,
            "scale": 0.060569475211349186,
            "original_dtype": "float32"
          }
        },
        {
          "name": "block_8_depthwise_BN/moving_variance",
          "shape": [384],
          "dtype": "float32",
          "quantization": {
            "dtype": "uint8",
            "min": 9.275253978557885e-5,
            "scale": 0.02692699896835941,
            "original_dtype": "float32"
          }
        },
        {
          "name": "block_8_project/kernel",
          "shape": [1, 1, 384, 64],
          "dtype": "float32",
          "quantization": {
            "dtype": "uint8",
            "min": -0.34922633100958433,
            "scale": 0.0027938106480766747,
            "original_dtype": "float32"
          }
        },
        {
          "name": "block_8_project_BN/gamma",
          "shape": [64],
          "dtype": "float32",
          "quantization": {
            "dtype": "uint8",
            "min": 0.6829383373260498,
            "scale": 0.014744041480270087,
            "original_dtype": "float32"
          }
        },
        {
          "name": "block_8_project_BN/beta",
          "shape": [64],
          "dtype": "float32",
          "quantization": {
            "dtype": "uint8",
            "min": -0.0063174204426068884,
            "scale": 4.3568416845564746e-5,
            "original_dtype": "float32"
          }
        },
        {
          "name": "block_8_project_BN/moving_mean",
          "shape": [64],
          "dtype": "float32",
          "quantization": {
            "dtype": "uint8",
            "min": -1.0717553257942198,
            "scale": 0.007004936769896862,
            "original_dtype": "float32"
          }
        },
        {
          "name": "block_8_project_BN/moving_variance",
          "shape": [64],
          "dtype": "float32",
          "quantization": {
            "dtype": "uint8",
            "min": 0.07941048592329025,
            "scale": 0.0012513319943465437,
            "original_dtype": "float32"
          }
        },
        {
          "name": "block_9_expand/kernel",
          "shape": [1, 1, 64, 384],
          "dtype": "float32",
          "quantization": {
            "dtype": "uint8",
            "min": -0.38211737310185157,
            "scale": 0.002830499060013715,
            "original_dtype": "float32"
          }
        },
        {
          "name": "block_9_expand_BN/gamma",
          "shape": [384],
          "dtype": "float32",
          "quantization": {
            "dtype": "uint8",
            "min": 0.17615024745464325,
            "scale": 0.005009537409333621,
            "original_dtype": "float32"
          }
        },
        {
          "name": "block_9_expand_BN/beta",
          "shape": [384],
          "dtype": "float32",
          "quantization": {
            "dtype": "uint8",
            "min": -1.3292471240548527,
            "scale": 0.012084064764135025,
            "original_dtype": "float32"
          }
        },
        {
          "name": "block_9_expand_BN/moving_mean",
          "shape": [384],
          "dtype": "float32",
          "quantization": {
            "dtype": "uint8",
            "min": -0.005282367323981781,
            "scale": 4.80215211271071e-5,
            "original_dtype": "float32"
          }
        },
        {
          "name": "block_9_expand_BN/moving_variance",
          "shape": [384],
          "dtype": "float32",
          "quantization": {
            "dtype": "uint8",
            "min": 2.2926582829008624e-26,
            "scale": 0.043842375512216605,
            "original_dtype": "float32"
          }
        },
        {
          "name": "block_9_depthwise/depthwise_kernel",
          "shape": [3, 3, 384, 1],
          "dtype": "float32",
          "quantization": {
            "dtype": "uint8",
            "min": -2.7076543415293974,
            "scale": 0.020206375683055205,
            "original_dtype": "float32"
          }
        },
        {
          "name": "block_9_depthwise_BN/gamma",
          "shape": [384],
          "dtype": "float32",
          "quantization": {
            "dtype": "uint8",
            "min": 0.2806711494922638,
            "scale": 0.013012587673523847,
            "original_dtype": "float32"
          }
        },
        {
          "name": "block_9_depthwise_BN/beta",
          "shape": [384],
          "dtype": "float32",
          "quantization": {
            "dtype": "uint8",
            "min": -6.185911599327536,
            "scale": 0.03555121608808929,
            "original_dtype": "float32"
          }
        },
        {
          "name": "block_9_depthwise_BN/moving_mean",
          "shape": [384],
          "dtype": "float32",
          "quantization": {
            "dtype": "uint8",
            "min": -4.384521175833309,
            "scale": 0.035076169406666476,
            "original_dtype": "float32"
          }
        },
        {
          "name": "block_9_depthwise_BN/moving_variance",
          "shape": [384],
          "dtype": "float32",
          "quantization": {
            "dtype": "uint8",
            "min": 3.910590037401357e-36,
            "scale": 0.02421219021666284,
            "original_dtype": "float32"
          }
        },
        {
          "name": "block_9_project/kernel",
          "shape": [1, 1, 384, 64],
          "dtype": "float32",
          "quantization": {
            "dtype": "uint8",
            "min": -0.3106466475655051,
            "scale": 0.002187652447644402,
            "original_dtype": "float32"
          }
        },
        {
          "name": "block_9_project_BN/gamma",
          "shape": [64],
          "dtype": "float32",
          "quantization": {
            "dtype": "uint8",
            "min": 0.7945230603218079,
            "scale": 0.013408770046982111,
            "original_dtype": "float32"
          }
        },
        {
          "name": "block_9_project_BN/beta",
          "shape": [64],
          "dtype": "float32",
          "quantization": {
            "dtype": "uint8",
            "min": -0.006053667763868968,
            "scale": 4.4512262969624764e-5,
            "original_dtype": "float32"
          }
        },
        {
          "name": "block_9_project_BN/moving_mean",
          "shape": [64],
          "dtype": "float32",
          "quantization": {
            "dtype": "uint8",
            "min": -0.9819088800280702,
            "scale": 0.007553145230985155,
            "original_dtype": "float32"
          }
        },
        {
          "name": "block_9_project_BN/moving_variance",
          "shape": [64],
          "dtype": "float32",
          "quantization": {
            "dtype": "uint8",
            "min": 0.07773926854133606,
            "scale": 0.001194608679004744,
            "original_dtype": "float32"
          }
        },
        {
          "name": "block_10_expand/kernel",
          "shape": [1, 1, 64, 384],
          "dtype": "float32",
          "quantization": {
            "dtype": "uint8",
            "min": -0.607239008884804,
            "scale": 0.004744054756912531,
            "original_dtype": "float32"
          }
        },
        {
          "name": "block_10_expand_BN/gamma",
          "shape": [384],
          "dtype": "float32",
          "quantization": {
            "dtype": "uint8",
            "min": 0.3064272999763489,
            "scale": 0.009197932364893895,
            "original_dtype": "float32"
          }
        },
        {
          "name": "block_10_expand_BN/beta",
          "shape": [384],
          "dtype": "float32",
          "quantization": {
            "dtype": "uint8",
            "min": -1.3664665886000091,
            "scale": 0.015353557175281002,
            "original_dtype": "float32"
          }
        },
        {
          "name": "block_10_expand_BN/moving_mean",
          "shape": [384],
          "dtype": "float32",
          "quantization": {
            "dtype": "uint8",
            "min": -0.011631188475910355,
            "scale": 8.947068058392581e-5,
            "original_dtype": "float32"
          }
        },
        {
          "name": "block_10_expand_BN/moving_variance",
          "shape": [384],
          "dtype": "float32",
          "quantization": {
            "dtype": "uint8",
            "min": 2.975445032119751,
            "scale": 0.06624765489615646,
            "original_dtype": "float32"
          }
        },
        {
          "name": "block_10_depthwise/depthwise_kernel",
          "shape": [3, 3, 384, 1],
          "dtype": "float32",
          "quantization": {
            "dtype": "uint8",
            "min": -4.69017936482149,
            "scale": 0.03722364575255151,
            "original_dtype": "float32"
          }
        },
        {
          "name": "block_10_depthwise_BN/gamma",
          "shape": [384],
          "dtype": "float32",
          "quantization": {
            "dtype": "uint8",
            "min": 0.40093404054641724,
            "scale": 0.006983793249317244,
            "original_dtype": "float32"
          }
        },
        {
          "name": "block_10_depthwise_BN/beta",
          "shape": [384],
          "dtype": "float32",
          "quantization": {
            "dtype": "uint8",
            "min": -2.7463454975801356,
            "scale": 0.028312840181238513,
            "original_dtype": "float32"
          }
        },
        {
          "name": "block_10_depthwise_BN/moving_mean",
          "shape": [384],
          "dtype": "float32",
          "quantization": {
            "dtype": "uint8",
            "min": -12.06052672442268,
            "scale": 0.08149004543528837,
            "original_dtype": "float32"
          }
        },
        {
          "name": "block_10_depthwise_BN/moving_variance",
          "shape": [384],
          "dtype": "float32",
          "quantization": {
            "dtype": "uint8",
            "min": 0.5998061895370483,
            "scale": 0.08668875460531197,
            "original_dtype": "float32"
          }
        },
        {
          "name": "block_10_project/kernel",
          "shape": [1, 1, 384, 96],
          "dtype": "float32",
          "quantization": {
            "dtype": "uint8",
            "min": -0.45056581497192383,
            "scale": 0.003312983933617087,
            "original_dtype": "float32"
          }
        },
        {
          "name": "block_10_project_BN/gamma",
          "shape": [96],
          "dtype": "float32",
          "quantization": {
            "dtype": "uint8",
            "min": 1.8833286762237549,
            "scale": 0.012130900925281001,
            "original_dtype": "float32"
          }
        },
        {
          "name": "block_10_project_BN/beta",
          "shape": [96],
          "dtype": "float32",
          "quantization": {
            "dtype": "uint8",
            "min": -0.007705666015253347,
            "scale": 4.939529496957274e-5,
            "original_dtype": "float32"
          }
        },
        {
          "name": "block_10_project_BN/moving_mean",
          "shape": [96],
          "dtype": "float32",
          "quantization": {
            "dtype": "uint8",
            "min": -7.0106295791326785,
            "scale": 0.050075925565233416,
            "original_dtype": "float32"
          }
        },
        {
          "name": "block_10_project_BN/moving_variance",
          "shape": [96],
          "dtype": "float32",
          "quantization": {
            "dtype": "uint8",
            "min": 0.3628792464733124,
            "scale": 0.026088338856603586,
            "original_dtype": "float32"
          }
        },
        {
          "name": "block_11_expand/kernel",
          "shape": [1, 1, 96, 576],
          "dtype": "float32",
          "quantization": {
            "dtype": "uint8",
            "min": -0.31470546067929733,
            "scale": 0.002247896147709267,
            "original_dtype": "float32"
          }
        },
        {
          "name": "block_11_expand_BN/gamma",
          "shape": [576],
          "dtype": "float32",
          "quantization": {
            "dtype": "uint8",
            "min": 0.2703140079975128,
            "scale": 0.006008459890589995,
            "original_dtype": "float32"
          }
        },
        {
          "name": "block_11_expand_BN/beta",
          "shape": [576],
          "dtype": "float32",
          "quantization": {
            "dtype": "uint8",
            "min": -1.629315683888454,
            "scale": 0.013807760032953,
            "original_dtype": "float32"
          }
        },
        {
          "name": "block_11_expand_BN/moving_mean",
          "shape": [576],
          "dtype": "float32",
          "quantization": {
            "dtype": "uint8",
            "min": -0.004746816255261793,
            "scale": 3.3665363512494984e-5,
            "original_dtype": "float32"
          }
        },
        {
          "name": "block_11_expand_BN/moving_variance",
          "shape": [576],
          "dtype": "float32",
          "quantization": {
            "dtype": "uint8",
            "min": 0.704649031162262,
            "scale": 0.028658642254623713,
            "original_dtype": "float32"
          }
        },
        {
          "name": "block_11_depthwise/depthwise_kernel",
          "shape": [3, 3, 576, 1],
          "dtype": "float32",
          "quantization": {
            "dtype": "uint8",
            "min": -2.529797004250919,
            "scale": 0.02007775400199142,
            "original_dtype": "float32"
          }
        },
        {
          "name": "block_11_depthwise_BN/gamma",
          "shape": [576],
          "dtype": "float32",
          "quantization": {
            "dtype": "uint8",
            "min": 0.3218483626842499,
            "scale": 0.009735808769861857,
            "original_dtype": "float32"
          }
        },
        {
          "name": "block_11_depthwise_BN/beta",
          "shape": [576],
          "dtype": "float32",
          "quantization": {
            "dtype": "uint8",
            "min": -5.183310634014654,
            "scale": 0.03280576350642186,
            "original_dtype": "float32"
          }
        },
        {
          "name": "block_11_depthwise_BN/moving_mean",
          "shape": [576],
          "dtype": "float32",
          "quantization": {
            "dtype": "uint8",
            "min": -5.799536734936284,
            "scale": 0.038923065335142844,
            "original_dtype": "float32"
          }
        },
        {
          "name": "block_11_depthwise_BN/moving_variance",
          "shape": [576],
          "dtype": "float32",
          "quantization": {
            "dtype": "uint8",
            "min": 7.264748273883015e-5,
            "scale": 0.04208054944054525,
            "original_dtype": "float32"
          }
        },
        {
          "name": "block_11_project/kernel",
          "shape": [1, 1, 576, 96],
          "dtype": "float32",
          "quantization": {
            "dtype": "uint8",
            "min": -0.23071029864105524,
            "scale": 0.001988881884836683,
            "original_dtype": "float32"
          }
        },
        {
          "name": "block_11_project_BN/gamma",
          "shape": [96],
          "dtype": "float32",
          "quantization": {
            "dtype": "uint8",
            "min": 0.4936714470386505,
            "scale": 0.010468073335348391,
            "original_dtype": "float32"
          }
        },
        {
          "name": "block_11_project_BN/beta",
          "shape": [96],
          "dtype": "float32",
          "quantization": {
            "dtype": "uint8",
            "min": -0.005585658988531898,
            "scale": 3.878929853147151e-5,
            "original_dtype": "float32"
          }
        },
        {
          "name": "block_11_project_BN/moving_mean",
          "shape": [96],
          "dtype": "float32",
          "quantization": {
            "dtype": "uint8",
            "min": -1.8595577127793257,
            "scale": 0.01788036262287813,
            "original_dtype": "float32"
          }
        },
        {
          "name": "block_11_project_BN/moving_variance",
          "shape": [96],
          "dtype": "float32",
          "quantization": {
            "dtype": "uint8",
            "min": 0.07891298085451126,
            "scale": 0.0010929017382509567,
            "original_dtype": "float32"
          }
        },
        {
          "name": "block_12_expand/kernel",
          "shape": [1, 1, 96, 576],
          "dtype": "float32",
          "quantization": {
            "dtype": "uint8",
            "min": -0.25229448290432205,
            "scale": 0.0020023371659073177,
            "original_dtype": "float32"
          }
        },
        {
          "name": "block_12_expand_BN/gamma",
          "shape": [576],
          "dtype": "float32",
          "quantization": {
            "dtype": "uint8",
            "min": -0.6435281248653636,
            "scale": 0.01072546874775606,
            "original_dtype": "float32"
          }
        },
        {
          "name": "block_12_expand_BN/beta",
          "shape": [576],
          "dtype": "float32",
          "quantization": {
            "dtype": "uint8",
            "min": -2.082383155822754,
            "scale": 0.01692994435628255,
            "original_dtype": "float32"
          }
        },
        {
          "name": "block_12_expand_BN/moving_mean",
          "shape": [576],
          "dtype": "float32",
          "quantization": {
            "dtype": "uint8",
            "min": -0.005901695415377617,
            "scale": 4.185599585374196e-5,
            "original_dtype": "float32"
          }
        },
        {
          "name": "block_12_expand_BN/moving_variance",
          "shape": [576],
          "dtype": "float32",
          "quantization": {
            "dtype": "uint8",
            "min": 7.595853525818868e-26,
            "scale": 0.0514226614260206,
            "original_dtype": "float32"
          }
        },
        {
          "name": "block_12_depthwise/depthwise_kernel",
          "shape": [3, 3, 576, 1],
          "dtype": "float32",
          "quantization": {
            "dtype": "uint8",
            "min": -2.742185298134299,
            "scale": 0.022294189415726008,
            "original_dtype": "float32"
          }
        },
        {
          "name": "block_12_depthwise_BN/gamma",
          "shape": [576],
          "dtype": "float32",
          "quantization": {
            "dtype": "uint8",
            "min": 0.22060377895832062,
            "scale": 0.013639334779159696,
            "original_dtype": "float32"
          }
        },
        {
          "name": "block_12_depthwise_BN/beta",
          "shape": [576],
          "dtype": "float32",
          "quantization": {
            "dtype": "uint8",
            "min": -4.080136222465366,
            "scale": 0.03212705686980603,
            "original_dtype": "float32"
          }
        },
        {
          "name": "block_12_depthwise_BN/moving_mean",
          "shape": [576],
          "dtype": "float32",
          "quantization": {
            "dtype": "uint8",
            "min": -8.920047435573503,
            "scale": 0.04928203003079284,
            "original_dtype": "float32"
          }
        },
        {
          "name": "block_12_depthwise_BN/moving_variance",
          "shape": [576],
          "dtype": "float32",
          "quantization": {
            "dtype": "uint8",
            "min": 3.911289206862341e-36,
            "scale": 0.04110867369408701,
            "original_dtype": "float32"
          }
        },
        {
          "name": "block_12_project/kernel",
          "shape": [1, 1, 576, 96],
          "dtype": "float32",
          "quantization": {
            "dtype": "uint8",
            "min": -0.7077784482170554,
            "scale": 0.006376382416369868,
            "original_dtype": "float32"
          }
        },
        {
          "name": "block_12_project_BN/gamma",
          "shape": [96],
          "dtype": "float32",
          "quantization": {
            "dtype": "uint8",
            "min": 0.5258527398109436,
            "scale": 0.019215061851576263,
            "original_dtype": "float32"
          }
        },
        {
          "name": "block_12_project_BN/beta",
          "shape": [96],
          "dtype": "float32",
          "quantization": {
            "dtype": "uint8",
            "min": -0.0053840920529967425,
            "scale": 4.0481895135313855e-5,
            "original_dtype": "float32"
          }
        },
        {
          "name": "block_12_project_BN/moving_mean",
          "shape": [96],
          "dtype": "float32",
          "quantization": {
            "dtype": "uint8",
            "min": -1.5063005447387696,
            "scale": 0.014767652399399702,
            "original_dtype": "float32"
          }
        },
        {
          "name": "block_12_project_BN/moving_variance",
          "shape": [96],
          "dtype": "float32",
          "quantization": {
            "dtype": "uint8",
            "min": 0.04680492356419563,
            "scale": 0.002204139019344367,
            "original_dtype": "float32"
          }
        },
        {
          "name": "block_13_expand/kernel",
          "shape": [1, 1, 96, 576],
          "dtype": "float32",
          "quantization": {
            "dtype": "uint8",
            "min": -0.4085241476694743,
            "scale": 0.0030038540269814286,
            "original_dtype": "float32"
          }
        },
        {
          "name": "block_13_expand_BN/gamma",
          "shape": [576],
          "dtype": "float32",
          "quantization": {
            "dtype": "uint8",
            "min": 0.2884228527545929,
            "scale": 0.00587193252993565,
            "original_dtype": "float32"
          }
        },
        {
          "name": "block_13_expand_BN/beta",
          "shape": [576],
          "dtype": "float32",
          "quantization": {
            "dtype": "uint8",
            "min": -2.794180874263539,
            "scale": 0.01757346461800968,
            "original_dtype": "float32"
          }
        },
        {
          "name": "block_13_expand_BN/moving_mean",
          "shape": [576],
          "dtype": "float32",
          "quantization": {
            "dtype": "uint8",
            "min": -0.010876423186239074,
            "scale": 8.366479374030057e-5,
            "original_dtype": "float32"
          }
        },
        {
          "name": "block_13_expand_BN/moving_variance",
          "shape": [576],
          "dtype": "float32",
          "quantization": {
            "dtype": "uint8",
            "min": 1.5381715297698975,
            "scale": 0.0490167963738535,
            "original_dtype": "float32"
          }
        },
        {
          "name": "block_13_depthwise/depthwise_kernel",
          "shape": [3, 3, 576, 1],
          "dtype": "float32",
          "quantization": {
            "dtype": "uint8",
            "min": -1.3218866189320884,
            "scale": 0.0111082909153957,
            "original_dtype": "float32"
          }
        },
        {
          "name": "block_13_depthwise_BN/gamma",
          "shape": [576],
          "dtype": "float32",
          "quantization": {
            "dtype": "uint8",
            "min": 0.33375418186187744,
            "scale": 0.004785947706185135,
            "original_dtype": "float32"
          }
        },
        {
          "name": "block_13_depthwise_BN/beta",
          "shape": [576],
          "dtype": "float32",
          "quantization": {
            "dtype": "uint8",
            "min": -1.7845768690109254,
            "scale": 0.02586343288421631,
            "original_dtype": "float32"
          }
        },
        {
          "name": "block_13_depthwise_BN/moving_mean",
          "shape": [576],
          "dtype": "float32",
          "quantization": {
            "dtype": "uint8",
            "min": -7.797012843337713,
            "scale": 0.04103690970177744,
            "original_dtype": "float32"
          }
        },
        {
          "name": "block_13_depthwise_BN/moving_variance",
          "shape": [576],
          "dtype": "float32",
          "quantization": {
            "dtype": "uint8",
            "min": 0.04975026473402977,
            "scale": 0.04624804727294866,
            "original_dtype": "float32"
          }
        },
        {
          "name": "block_13_project/kernel",
          "shape": [1, 1, 576, 160],
          "dtype": "float32",
          "quantization": {
            "dtype": "uint8",
            "min": -0.2892769609011856,
            "scale": 0.0022082210755815694,
            "original_dtype": "float32"
          }
        },
        {
          "name": "block_13_project_BN/moving_mean",
          "shape": [160],
          "dtype": "float32",
          "quantization": {
            "dtype": "uint8",
            "min": -9.23929329292447,
            "scale": 0.058849001865760954,
            "original_dtype": "float32"
          }
        },
        {
          "name": "block_13_project_BN/moving_variance",
          "shape": [160],
          "dtype": "float32",
          "quantization": {
            "dtype": "uint8",
            "min": 0.02428513765335083,
            "scale": 0.0031873256552453133,
            "original_dtype": "float32"
          }
        },
        {
          "name": "block_14_expand_BN/moving_mean",
          "shape": [960],
          "dtype": "float32",
          "quantization": {
            "dtype": "uint8",
            "min": -0.0029959433794240742,
            "scale": 2.6512773269239594e-5,
            "original_dtype": "float32"
          }
        },
        {
          "name": "block_14_expand_BN/moving_variance",
          "shape": [960],
          "dtype": "float32",
          "quantization": {
            "dtype": "uint8",
            "min": 0.3110436797142029,
            "scale": 0.04976475682913088,
            "original_dtype": "float32"
          }
        },
        {
          "name": "block_14_depthwise_BN/moving_mean",
          "shape": [960],
          "dtype": "float32",
          "quantization": {
            "dtype": "uint8",
            "min": -5.670209697648591,
            "scale": 0.03993105420879289,
            "original_dtype": "float32"
          }
        },
        {
          "name": "block_14_depthwise_BN/moving_variance",
          "shape": [960],
          "dtype": "float32",
          "quantization": {
            "dtype": "uint8",
            "min": 1.092665388569003e-5,
            "scale": 0.05816793083704397,
            "original_dtype": "float32"
          }
        },
        {
          "name": "block_14_project_BN/moving_mean",
          "shape": [160],
          "dtype": "float32",
          "quantization": {
            "dtype": "uint8",
            "min": -1.8415597279866536,
            "scale": 0.016442497571309406,
            "original_dtype": "float32"
          }
        },
        {
          "name": "block_14_project_BN/moving_variance",
          "shape": [160],
          "dtype": "float32",
          "quantization": {
            "dtype": "uint8",
            "min": 0.13242317736148834,
            "scale": 0.004054599123842576,
            "original_dtype": "float32"
          }
        },
        {
          "name": "block_15_expand_BN/moving_mean",
          "shape": [960],
          "dtype": "float32",
          "quantization": {
            "dtype": "uint8",
            "min": -0.004942256184842657,
            "scale": 4.618931013871642e-5,
            "original_dtype": "float32"
          }
        },
        {
          "name": "block_15_expand_BN/moving_variance",
          "shape": [960],
          "dtype": "float32",
          "quantization": {
            "dtype": "uint8",
            "min": 0.4730026423931122,
            "scale": 0.08465850972661786,
            "original_dtype": "float32"
          }
        },
        {
          "name": "block_15_depthwise_BN/moving_mean",
          "shape": [960],
          "dtype": "float32",
          "quantization": {
            "dtype": "uint8",
            "min": -8.070407104492187,
            "scale": 0.05934122870950138,
            "original_dtype": "float32"
          }
        },
        {
          "name": "block_15_depthwise_BN/moving_variance",
          "shape": [960],
          "dtype": "float32",
          "quantization": {
            "dtype": "uint8",
            "min": 2.538684193420515e-11,
            "scale": 0.050629653182584645,
            "original_dtype": "float32"
          }
        },
        {
          "name": "block_15_project_BN/moving_mean",
          "shape": [160],
          "dtype": "float32",
          "quantization": {
            "dtype": "uint8",
            "min": -1.8331556881175322,
            "scale": 0.016973663778866038,
            "original_dtype": "float32"
          }
        },
        {
          "name": "block_15_project_BN/moving_variance",
          "shape": [160],
          "dtype": "float32",
          "quantization": {
            "dtype": "uint8",
            "min": 0.017864536494016647,
            "scale": 0.0005612429012270535,
            "original_dtype": "float32"
          }
        },
        {
          "name": "block_16_expand_BN/moving_mean",
          "shape": [960],
          "dtype": "float32",
          "quantization": {
            "dtype": "uint8",
            "min": -0.00794584242006143,
            "scale": 7.223493109146754e-5,
            "original_dtype": "float32"
          }
        },
        {
          "name": "block_16_expand_BN/moving_variance",
          "shape": [960],
          "dtype": "float32",
          "quantization": {
            "dtype": "uint8",
            "min": 1.3066366910934448,
            "scale": 0.326471890187731,
            "original_dtype": "float32"
          }
        },
        {
          "name": "block_16_depthwise_BN/moving_mean",
          "shape": [960],
          "dtype": "float32",
          "quantization": {
            "dtype": "uint8",
            "min": -5.992151596966912,
            "scale": 0.06177475873161765,
            "original_dtype": "float32"
          }
        },
        {
          "name": "block_16_depthwise_BN/moving_variance",
          "shape": [960],
          "dtype": "float32",
          "quantization": {
            "dtype": "uint8",
            "min": 3.3362379525669894e-9,
            "scale": 0.2016670675707862,
            "original_dtype": "float32"
          }
        },
        {
          "name": "block_16_project_BN/moving_mean",
          "shape": [320],
          "dtype": "float32",
          "quantization": {
            "dtype": "uint8",
            "min": -7.5168854825636915,
            "scale": 0.05827043009739296,
            "original_dtype": "float32"
          }
        },
        {
          "name": "block_16_project_BN/moving_variance",
          "shape": [320],
          "dtype": "float32",
          "quantization": {
            "dtype": "uint8",
            "min": 0.26893848180770874,
            "scale": 0.0162863434529772,
            "original_dtype": "float32"
          }
        },
        {
          "name": "Conv_1_bn/moving_mean",
          "shape": [1280],
          "dtype": "float32",
          "quantization": {
            "dtype": "uint8",
            "min": -0.002015264533624491,
            "scale": 1.5152364914469859e-5,
            "original_dtype": "float32"
          }
        },
        {
          "name": "Conv_1_bn/moving_variance",
          "shape": [1280],
          "dtype": "float32",
          "quantization": {
            "dtype": "uint8",
            "min": 0.5790647268295288,
            "scale": 0.03888547794491637,
            "original_dtype": "float32"
          }
        }
      ]
    }
  ]
}
